program(1.0)
[buildInfo = dict<tensor<string, []>, tensor<string, []>>({{"coremlc-component-MIL", "3500.14.1"}, {"coremlc-version", "3500.32.1"}, {"coremltools-component-torch", "2.9.1"}, {"coremltools-source-dialect", "TorchScript"}, {"coremltools-version", "9.0"}})]
{
    func main<ios16>(tensor<fp16, [1, 1, 10, 32]> feat_erb_buf, tensor<fp16, [1, 1, 10, 96, 2]> feat_spec_buf, tensor<fp16, [1, 2, 256]> h_df_in, tensor<fp16, [1, 1, 256]> h_enc_in, tensor<fp16, [1, 2, 256]> h_erb_in, tensor<fp16, [1, 1, 10, 481, 2]> spec_buf) {
            tensor<int32, [1]> var_584_axes_0 = const()[name = tensor<string, []>("op_584_axes_0"), val = tensor<int32, [1]>([1])];
            tensor<fp16, [1, 10, 96, 2]> var_584_cast_fp16 = squeeze(axes = var_584_axes_0, x = feat_spec_buf)[name = tensor<string, []>("op_584_cast_fp16")];
            tensor<int32, [4]> var_589 = const()[name = tensor<string, []>("op_589"), val = tensor<int32, [4]>([0, 3, 1, 2])];
            tensor<int32, [8]> input_1_pad_0 = const()[name = tensor<string, []>("input_1_pad_0"), val = tensor<int32, [8]>([0, 0, 0, 0, 2, 0, 0, 0])];
            tensor<string, []> input_1_mode_0 = const()[name = tensor<string, []>("input_1_mode_0"), val = tensor<string, []>("constant")];
            tensor<fp16, []> const_0_to_fp16 = const()[name = tensor<string, []>("const_0_to_fp16"), val = tensor<fp16, []>(0x0p+0)];
            tensor<fp16, [1, 1, 12, 32]> input_1_cast_fp16 = pad(constant_val = const_0_to_fp16, mode = input_1_mode_0, pad = input_1_pad_0, x = feat_erb_buf)[name = tensor<string, []>("input_1_cast_fp16")];
            tensor<string, []> input_3_pad_type_0 = const()[name = tensor<string, []>("input_3_pad_type_0"), val = tensor<string, []>("custom")];
            tensor<int32, [4]> input_3_pad_0 = const()[name = tensor<string, []>("input_3_pad_0"), val = tensor<int32, [4]>([0, 0, 1, 1])];
            tensor<int32, [2]> input_3_strides_0 = const()[name = tensor<string, []>("input_3_strides_0"), val = tensor<int32, [2]>([1, 1])];
            tensor<int32, [2]> input_3_dilations_0 = const()[name = tensor<string, []>("input_3_dilations_0"), val = tensor<int32, [2]>([1, 1])];
            tensor<int32, []> input_3_groups_0 = const()[name = tensor<string, []>("input_3_groups_0"), val = tensor<int32, []>(1)];
            tensor<fp16, [64, 1, 3, 3]> const_27_to_fp16 = const()[name = tensor<string, []>("const_27_to_fp16"), val = tensor<fp16, [64, 1, 3, 3]>(BLOBFILE(path = tensor<string, []>("@model_path/weights/weight.bin"), offset = tensor<uint64, []>(64)))];
            tensor<fp16, [64]> const_28_to_fp16 = const()[name = tensor<string, []>("const_28_to_fp16"), val = tensor<fp16, [64]>(BLOBFILE(path = tensor<string, []>("@model_path/weights/weight.bin"), offset = tensor<uint64, []>(1280)))];
            tensor<fp16, [1, 64, 10, 32]> input_5_cast_fp16 = conv(bias = const_28_to_fp16, dilations = input_3_dilations_0, groups = input_3_groups_0, pad = input_3_pad_0, pad_type = input_3_pad_type_0, strides = input_3_strides_0, weight = const_27_to_fp16, x = input_1_cast_fp16)[name = tensor<string, []>("input_5_cast_fp16")];
            tensor<fp16, [1, 64, 10, 32]> input_7_cast_fp16 = relu(x = input_5_cast_fp16)[name = tensor<string, []>("input_7_cast_fp16")];
            tensor<string, []> input_9_pad_type_0 = const()[name = tensor<string, []>("input_9_pad_type_0"), val = tensor<string, []>("custom")];
            tensor<int32, [4]> input_9_pad_0 = const()[name = tensor<string, []>("input_9_pad_0"), val = tensor<int32, [4]>([0, 0, 1, 1])];
            tensor<int32, [2]> input_9_strides_0 = const()[name = tensor<string, []>("input_9_strides_0"), val = tensor<int32, [2]>([1, 2])];
            tensor<int32, []> input_9_groups_0 = const()[name = tensor<string, []>("input_9_groups_0"), val = tensor<int32, []>(64)];
            tensor<int32, [2]> input_9_dilations_0 = const()[name = tensor<string, []>("input_9_dilations_0"), val = tensor<int32, [2]>([1, 1])];
            tensor<fp16, [64, 1, 1, 3]> original_enc_erb_conv1_0_weight_to_fp16 = const()[name = tensor<string, []>("original_enc_erb_conv1_0_weight_to_fp16"), val = tensor<fp16, [64, 1, 1, 3]>(BLOBFILE(path = tensor<string, []>("@model_path/weights/weight.bin"), offset = tensor<uint64, []>(1472)))];
            tensor<fp16, [1, 64, 10, 16]> input_9_cast_fp16 = conv(dilations = input_9_dilations_0, groups = input_9_groups_0, pad = input_9_pad_0, pad_type = input_9_pad_type_0, strides = input_9_strides_0, weight = original_enc_erb_conv1_0_weight_to_fp16, x = input_7_cast_fp16)[name = tensor<string, []>("input_9_cast_fp16")];
            tensor<string, []> input_11_pad_type_0 = const()[name = tensor<string, []>("input_11_pad_type_0"), val = tensor<string, []>("valid")];
            tensor<int32, [2]> input_11_strides_0 = const()[name = tensor<string, []>("input_11_strides_0"), val = tensor<int32, [2]>([1, 1])];
            tensor<int32, [4]> input_11_pad_0 = const()[name = tensor<string, []>("input_11_pad_0"), val = tensor<int32, [4]>([0, 0, 0, 0])];
            tensor<int32, [2]> input_11_dilations_0 = const()[name = tensor<string, []>("input_11_dilations_0"), val = tensor<int32, [2]>([1, 1])];
            tensor<int32, []> input_11_groups_0 = const()[name = tensor<string, []>("input_11_groups_0"), val = tensor<int32, []>(1)];
            tensor<fp16, [64, 64, 1, 1]> const_29_to_fp16 = const()[name = tensor<string, []>("const_29_to_fp16"), val = tensor<fp16, [64, 64, 1, 1]>(BLOBFILE(path = tensor<string, []>("@model_path/weights/weight.bin"), offset = tensor<uint64, []>(1920)))];
            tensor<fp16, [64]> const_30_to_fp16 = const()[name = tensor<string, []>("const_30_to_fp16"), val = tensor<fp16, [64]>(BLOBFILE(path = tensor<string, []>("@model_path/weights/weight.bin"), offset = tensor<uint64, []>(10176)))];
            tensor<fp16, [1, 64, 10, 16]> input_13_cast_fp16 = conv(bias = const_30_to_fp16, dilations = input_11_dilations_0, groups = input_11_groups_0, pad = input_11_pad_0, pad_type = input_11_pad_type_0, strides = input_11_strides_0, weight = const_29_to_fp16, x = input_9_cast_fp16)[name = tensor<string, []>("input_13_cast_fp16")];
            tensor<fp16, [1, 64, 10, 16]> input_15_cast_fp16 = relu(x = input_13_cast_fp16)[name = tensor<string, []>("input_15_cast_fp16")];
            tensor<string, []> input_17_pad_type_0 = const()[name = tensor<string, []>("input_17_pad_type_0"), val = tensor<string, []>("custom")];
            tensor<int32, [4]> input_17_pad_0 = const()[name = tensor<string, []>("input_17_pad_0"), val = tensor<int32, [4]>([0, 0, 1, 1])];
            tensor<int32, [2]> input_17_strides_0 = const()[name = tensor<string, []>("input_17_strides_0"), val = tensor<int32, [2]>([1, 2])];
            tensor<int32, []> input_17_groups_0 = const()[name = tensor<string, []>("input_17_groups_0"), val = tensor<int32, []>(64)];
            tensor<int32, [2]> input_17_dilations_0 = const()[name = tensor<string, []>("input_17_dilations_0"), val = tensor<int32, [2]>([1, 1])];
            tensor<fp16, [64, 1, 1, 3]> original_enc_erb_conv2_0_weight_to_fp16 = const()[name = tensor<string, []>("original_enc_erb_conv2_0_weight_to_fp16"), val = tensor<fp16, [64, 1, 1, 3]>(BLOBFILE(path = tensor<string, []>("@model_path/weights/weight.bin"), offset = tensor<uint64, []>(10368)))];
            tensor<fp16, [1, 64, 10, 8]> input_17_cast_fp16 = conv(dilations = input_17_dilations_0, groups = input_17_groups_0, pad = input_17_pad_0, pad_type = input_17_pad_type_0, strides = input_17_strides_0, weight = original_enc_erb_conv2_0_weight_to_fp16, x = input_15_cast_fp16)[name = tensor<string, []>("input_17_cast_fp16")];
            tensor<string, []> input_19_pad_type_0 = const()[name = tensor<string, []>("input_19_pad_type_0"), val = tensor<string, []>("valid")];
            tensor<int32, [2]> input_19_strides_0 = const()[name = tensor<string, []>("input_19_strides_0"), val = tensor<int32, [2]>([1, 1])];
            tensor<int32, [4]> input_19_pad_0 = const()[name = tensor<string, []>("input_19_pad_0"), val = tensor<int32, [4]>([0, 0, 0, 0])];
            tensor<int32, [2]> input_19_dilations_0 = const()[name = tensor<string, []>("input_19_dilations_0"), val = tensor<int32, [2]>([1, 1])];
            tensor<int32, []> input_19_groups_0 = const()[name = tensor<string, []>("input_19_groups_0"), val = tensor<int32, []>(1)];
            tensor<fp16, [64, 64, 1, 1]> const_31_to_fp16 = const()[name = tensor<string, []>("const_31_to_fp16"), val = tensor<fp16, [64, 64, 1, 1]>(BLOBFILE(path = tensor<string, []>("@model_path/weights/weight.bin"), offset = tensor<uint64, []>(10816)))];
            tensor<fp16, [64]> const_32_to_fp16 = const()[name = tensor<string, []>("const_32_to_fp16"), val = tensor<fp16, [64]>(BLOBFILE(path = tensor<string, []>("@model_path/weights/weight.bin"), offset = tensor<uint64, []>(19072)))];
            tensor<fp16, [1, 64, 10, 8]> input_21_cast_fp16 = conv(bias = const_32_to_fp16, dilations = input_19_dilations_0, groups = input_19_groups_0, pad = input_19_pad_0, pad_type = input_19_pad_type_0, strides = input_19_strides_0, weight = const_31_to_fp16, x = input_17_cast_fp16)[name = tensor<string, []>("input_21_cast_fp16")];
            tensor<fp16, [1, 64, 10, 8]> input_23_cast_fp16 = relu(x = input_21_cast_fp16)[name = tensor<string, []>("input_23_cast_fp16")];
            tensor<string, []> input_25_pad_type_0 = const()[name = tensor<string, []>("input_25_pad_type_0"), val = tensor<string, []>("custom")];
            tensor<int32, [4]> input_25_pad_0 = const()[name = tensor<string, []>("input_25_pad_0"), val = tensor<int32, [4]>([0, 0, 1, 1])];
            tensor<int32, []> input_25_groups_0 = const()[name = tensor<string, []>("input_25_groups_0"), val = tensor<int32, []>(64)];
            tensor<int32, [2]> input_25_strides_0 = const()[name = tensor<string, []>("input_25_strides_0"), val = tensor<int32, [2]>([1, 1])];
            tensor<int32, [2]> input_25_dilations_0 = const()[name = tensor<string, []>("input_25_dilations_0"), val = tensor<int32, [2]>([1, 1])];
            tensor<fp16, [64, 1, 1, 3]> original_enc_erb_conv3_0_weight_to_fp16 = const()[name = tensor<string, []>("original_enc_erb_conv3_0_weight_to_fp16"), val = tensor<fp16, [64, 1, 1, 3]>(BLOBFILE(path = tensor<string, []>("@model_path/weights/weight.bin"), offset = tensor<uint64, []>(19264)))];
            tensor<fp16, [1, 64, 10, 8]> input_25_cast_fp16 = conv(dilations = input_25_dilations_0, groups = input_25_groups_0, pad = input_25_pad_0, pad_type = input_25_pad_type_0, strides = input_25_strides_0, weight = original_enc_erb_conv3_0_weight_to_fp16, x = input_23_cast_fp16)[name = tensor<string, []>("input_25_cast_fp16")];
            tensor<string, []> input_27_pad_type_0 = const()[name = tensor<string, []>("input_27_pad_type_0"), val = tensor<string, []>("valid")];
            tensor<int32, [2]> input_27_strides_0 = const()[name = tensor<string, []>("input_27_strides_0"), val = tensor<int32, [2]>([1, 1])];
            tensor<int32, [4]> input_27_pad_0 = const()[name = tensor<string, []>("input_27_pad_0"), val = tensor<int32, [4]>([0, 0, 0, 0])];
            tensor<int32, [2]> input_27_dilations_0 = const()[name = tensor<string, []>("input_27_dilations_0"), val = tensor<int32, [2]>([1, 1])];
            tensor<int32, []> input_27_groups_0 = const()[name = tensor<string, []>("input_27_groups_0"), val = tensor<int32, []>(1)];
            tensor<fp16, [64, 64, 1, 1]> const_33_to_fp16 = const()[name = tensor<string, []>("const_33_to_fp16"), val = tensor<fp16, [64, 64, 1, 1]>(BLOBFILE(path = tensor<string, []>("@model_path/weights/weight.bin"), offset = tensor<uint64, []>(19712)))];
            tensor<fp16, [64]> const_34_to_fp16 = const()[name = tensor<string, []>("const_34_to_fp16"), val = tensor<fp16, [64]>(BLOBFILE(path = tensor<string, []>("@model_path/weights/weight.bin"), offset = tensor<uint64, []>(27968)))];
            tensor<fp16, [1, 64, 10, 8]> input_29_cast_fp16 = conv(bias = const_34_to_fp16, dilations = input_27_dilations_0, groups = input_27_groups_0, pad = input_27_pad_0, pad_type = input_27_pad_type_0, strides = input_27_strides_0, weight = const_33_to_fp16, x = input_25_cast_fp16)[name = tensor<string, []>("input_29_cast_fp16")];
            tensor<fp16, [1, 64, 10, 8]> e3_1_cast_fp16 = relu(x = input_29_cast_fp16)[name = tensor<string, []>("e3_1_cast_fp16")];
            tensor<int32, [8]> input_33_pad_0 = const()[name = tensor<string, []>("input_33_pad_0"), val = tensor<int32, [8]>([0, 0, 0, 0, 2, 0, 0, 0])];
            tensor<string, []> input_33_mode_0 = const()[name = tensor<string, []>("input_33_mode_0"), val = tensor<string, []>("constant")];
            tensor<fp16, []> const_1_to_fp16 = const()[name = tensor<string, []>("const_1_to_fp16"), val = tensor<fp16, []>(0x0p+0)];
            tensor<fp16, [1, 2, 10, 96]> input_31_cast_fp16 = transpose(perm = var_589, x = var_584_cast_fp16)[name = tensor<string, []>("transpose_50")];
            tensor<fp16, [1, 2, 12, 96]> input_33_cast_fp16 = pad(constant_val = const_1_to_fp16, mode = input_33_mode_0, pad = input_33_pad_0, x = input_31_cast_fp16)[name = tensor<string, []>("input_33_cast_fp16")];
            tensor<string, []> input_35_pad_type_0 = const()[name = tensor<string, []>("input_35_pad_type_0"), val = tensor<string, []>("custom")];
            tensor<int32, [4]> input_35_pad_0 = const()[name = tensor<string, []>("input_35_pad_0"), val = tensor<int32, [4]>([0, 0, 1, 1])];
            tensor<int32, []> input_35_groups_0 = const()[name = tensor<string, []>("input_35_groups_0"), val = tensor<int32, []>(2)];
            tensor<int32, [2]> input_35_strides_0 = const()[name = tensor<string, []>("input_35_strides_0"), val = tensor<int32, [2]>([1, 1])];
            tensor<int32, [2]> input_35_dilations_0 = const()[name = tensor<string, []>("input_35_dilations_0"), val = tensor<int32, [2]>([1, 1])];
            tensor<fp16, [64, 1, 3, 3]> original_enc_df_conv0_1_weight_to_fp16 = const()[name = tensor<string, []>("original_enc_df_conv0_1_weight_to_fp16"), val = tensor<fp16, [64, 1, 3, 3]>(BLOBFILE(path = tensor<string, []>("@model_path/weights/weight.bin"), offset = tensor<uint64, []>(28160)))];
            tensor<fp16, [1, 64, 10, 96]> input_35_cast_fp16 = conv(dilations = input_35_dilations_0, groups = input_35_groups_0, pad = input_35_pad_0, pad_type = input_35_pad_type_0, strides = input_35_strides_0, weight = original_enc_df_conv0_1_weight_to_fp16, x = input_33_cast_fp16)[name = tensor<string, []>("input_35_cast_fp16")];
            tensor<string, []> input_37_pad_type_0 = const()[name = tensor<string, []>("input_37_pad_type_0"), val = tensor<string, []>("valid")];
            tensor<int32, [2]> input_37_strides_0 = const()[name = tensor<string, []>("input_37_strides_0"), val = tensor<int32, [2]>([1, 1])];
            tensor<int32, [4]> input_37_pad_0 = const()[name = tensor<string, []>("input_37_pad_0"), val = tensor<int32, [4]>([0, 0, 0, 0])];
            tensor<int32, [2]> input_37_dilations_0 = const()[name = tensor<string, []>("input_37_dilations_0"), val = tensor<int32, [2]>([1, 1])];
            tensor<int32, []> input_37_groups_0 = const()[name = tensor<string, []>("input_37_groups_0"), val = tensor<int32, []>(1)];
            tensor<fp16, [64, 64, 1, 1]> const_35_to_fp16 = const()[name = tensor<string, []>("const_35_to_fp16"), val = tensor<fp16, [64, 64, 1, 1]>(BLOBFILE(path = tensor<string, []>("@model_path/weights/weight.bin"), offset = tensor<uint64, []>(29376)))];
            tensor<fp16, [64]> const_36_to_fp16 = const()[name = tensor<string, []>("const_36_to_fp16"), val = tensor<fp16, [64]>(BLOBFILE(path = tensor<string, []>("@model_path/weights/weight.bin"), offset = tensor<uint64, []>(37632)))];
            tensor<fp16, [1, 64, 10, 96]> input_39_cast_fp16 = conv(bias = const_36_to_fp16, dilations = input_37_dilations_0, groups = input_37_groups_0, pad = input_37_pad_0, pad_type = input_37_pad_type_0, strides = input_37_strides_0, weight = const_35_to_fp16, x = input_35_cast_fp16)[name = tensor<string, []>("input_39_cast_fp16")];
            tensor<fp16, [1, 64, 10, 96]> input_41_cast_fp16 = relu(x = input_39_cast_fp16)[name = tensor<string, []>("input_41_cast_fp16")];
            tensor<string, []> input_43_pad_type_0 = const()[name = tensor<string, []>("input_43_pad_type_0"), val = tensor<string, []>("custom")];
            tensor<int32, [4]> input_43_pad_0 = const()[name = tensor<string, []>("input_43_pad_0"), val = tensor<int32, [4]>([0, 0, 1, 1])];
            tensor<int32, [2]> input_43_strides_0 = const()[name = tensor<string, []>("input_43_strides_0"), val = tensor<int32, [2]>([1, 2])];
            tensor<int32, []> input_43_groups_0 = const()[name = tensor<string, []>("input_43_groups_0"), val = tensor<int32, []>(64)];
            tensor<int32, [2]> input_43_dilations_0 = const()[name = tensor<string, []>("input_43_dilations_0"), val = tensor<int32, [2]>([1, 1])];
            tensor<fp16, [64, 1, 1, 3]> original_enc_df_conv1_0_weight_to_fp16 = const()[name = tensor<string, []>("original_enc_df_conv1_0_weight_to_fp16"), val = tensor<fp16, [64, 1, 1, 3]>(BLOBFILE(path = tensor<string, []>("@model_path/weights/weight.bin"), offset = tensor<uint64, []>(37824)))];
            tensor<fp16, [1, 64, 10, 48]> input_43_cast_fp16 = conv(dilations = input_43_dilations_0, groups = input_43_groups_0, pad = input_43_pad_0, pad_type = input_43_pad_type_0, strides = input_43_strides_0, weight = original_enc_df_conv1_0_weight_to_fp16, x = input_41_cast_fp16)[name = tensor<string, []>("input_43_cast_fp16")];
            tensor<string, []> input_45_pad_type_0 = const()[name = tensor<string, []>("input_45_pad_type_0"), val = tensor<string, []>("valid")];
            tensor<int32, [2]> input_45_strides_0 = const()[name = tensor<string, []>("input_45_strides_0"), val = tensor<int32, [2]>([1, 1])];
            tensor<int32, [4]> input_45_pad_0 = const()[name = tensor<string, []>("input_45_pad_0"), val = tensor<int32, [4]>([0, 0, 0, 0])];
            tensor<int32, [2]> input_45_dilations_0 = const()[name = tensor<string, []>("input_45_dilations_0"), val = tensor<int32, [2]>([1, 1])];
            tensor<int32, []> input_45_groups_0 = const()[name = tensor<string, []>("input_45_groups_0"), val = tensor<int32, []>(1)];
            tensor<fp16, [64, 64, 1, 1]> const_37_to_fp16 = const()[name = tensor<string, []>("const_37_to_fp16"), val = tensor<fp16, [64, 64, 1, 1]>(BLOBFILE(path = tensor<string, []>("@model_path/weights/weight.bin"), offset = tensor<uint64, []>(38272)))];
            tensor<fp16, [64]> const_38_to_fp16 = const()[name = tensor<string, []>("const_38_to_fp16"), val = tensor<fp16, [64]>(BLOBFILE(path = tensor<string, []>("@model_path/weights/weight.bin"), offset = tensor<uint64, []>(46528)))];
            tensor<fp16, [1, 64, 10, 48]> input_47_cast_fp16 = conv(bias = const_38_to_fp16, dilations = input_45_dilations_0, groups = input_45_groups_0, pad = input_45_pad_0, pad_type = input_45_pad_type_0, strides = input_45_strides_0, weight = const_37_to_fp16, x = input_43_cast_fp16)[name = tensor<string, []>("input_47_cast_fp16")];
            tensor<fp16, [1, 64, 10, 48]> c1_cast_fp16 = relu(x = input_47_cast_fp16)[name = tensor<string, []>("c1_cast_fp16")];
            tensor<int32, [4]> var_680 = const()[name = tensor<string, []>("op_680"), val = tensor<int32, [4]>([0, 2, 3, 1])];
            tensor<int32, [4]> var_685 = const()[name = tensor<string, []>("op_685"), val = tensor<int32, [4]>([1, 10, 32, 96])];
            tensor<fp16, [1, 10, 48, 64]> var_681_cast_fp16 = transpose(perm = var_680, x = c1_cast_fp16)[name = tensor<string, []>("transpose_49")];
            tensor<fp16, [1, 10, 32, 96]> var_686_cast_fp16 = reshape(shape = var_685, x = var_681_cast_fp16)[name = tensor<string, []>("op_686_cast_fp16")];
            tensor<int32, [4]> transpose_0_perm_0 = const()[name = tensor<string, []>("transpose_0_perm_0"), val = tensor<int32, [4]>([2, 0, 1, 3])];
            tensor<int32, [3]> concat_5 = const()[name = tensor<string, []>("concat_5"), val = tensor<int32, [3]>([32, 10, 96])];
            tensor<fp16, [32, 1, 10, 96]> transpose_0_cast_fp16 = transpose(perm = transpose_0_perm_0, x = var_686_cast_fp16)[name = tensor<string, []>("transpose_48")];
            tensor<fp16, [32, 10, 96]> reshape_0_cast_fp16 = reshape(shape = concat_5, x = transpose_0_cast_fp16)[name = tensor<string, []>("reshape_0_cast_fp16")];
            tensor<bool, []> matmul_0_transpose_x_0 = const()[name = tensor<string, []>("matmul_0_transpose_x_0"), val = tensor<bool, []>(false)];
            tensor<bool, []> matmul_0_transpose_y_0 = const()[name = tensor<string, []>("matmul_0_transpose_y_0"), val = tensor<bool, []>(false)];
            tensor<fp16, [32, 96, 16]> original_enc_df_fc_emb_0_weight_to_fp16 = const()[name = tensor<string, []>("original_enc_df_fc_emb_0_weight_to_fp16"), val = tensor<fp16, [32, 96, 16]>(BLOBFILE(path = tensor<string, []>("@model_path/weights/weight.bin"), offset = tensor<uint64, []>(46720)))];
            tensor<fp16, [32, 10, 16]> matmul_0_cast_fp16 = matmul(transpose_x = matmul_0_transpose_x_0, transpose_y = matmul_0_transpose_y_0, x = reshape_0_cast_fp16, y = original_enc_df_fc_emb_0_weight_to_fp16)[name = tensor<string, []>("matmul_0_cast_fp16")];
            tensor<int32, [4]> concat_10 = const()[name = tensor<string, []>("concat_10"), val = tensor<int32, [4]>([32, 1, 10, 16])];
            tensor<fp16, [32, 1, 10, 16]> reshape_2_cast_fp16 = reshape(shape = concat_10, x = matmul_0_cast_fp16)[name = tensor<string, []>("reshape_2_cast_fp16")];
            tensor<int32, [4]> x_3_perm_0 = const()[name = tensor<string, []>("x_3_perm_0"), val = tensor<int32, [4]>([1, 2, 0, 3])];
            tensor<int32, [3]> concat_11 = const()[name = tensor<string, []>("concat_11"), val = tensor<int32, [3]>([1, 10, 512])];
            tensor<fp16, [1, 10, 32, 16]> x_3_cast_fp16 = transpose(perm = x_3_perm_0, x = reshape_2_cast_fp16)[name = tensor<string, []>("transpose_47")];
            tensor<fp16, [1, 10, 512]> input_49_cast_fp16 = reshape(shape = concat_11, x = x_3_cast_fp16)[name = tensor<string, []>("input_49_cast_fp16")];
            tensor<fp16, [1, 10, 512]> b_3_cast_fp16 = relu(x = input_49_cast_fp16)[name = tensor<string, []>("b_3_cast_fp16")];
            tensor<int32, [4]> var_691 = const()[name = tensor<string, []>("op_691"), val = tensor<int32, [4]>([0, 2, 3, 1])];
            tensor<int32, [3]> concat_12 = const()[name = tensor<string, []>("concat_12"), val = tensor<int32, [3]>([1, 10, 512])];
            tensor<fp16, [1, 10, 8, 64]> var_692_cast_fp16 = transpose(perm = var_691, x = e3_1_cast_fp16)[name = tensor<string, []>("transpose_46")];
            tensor<fp16, [1, 10, 512]> a_cast_fp16 = reshape(shape = concat_12, x = var_692_cast_fp16)[name = tensor<string, []>("a_cast_fp16")];
            tensor<fp16, [1, 10, 512]> emb_cast_fp16 = add(x = a_cast_fp16, y = b_3_cast_fp16)[name = tensor<string, []>("emb_cast_fp16")];
            tensor<int32, [3]> var_696_begin_0 = const()[name = tensor<string, []>("op_696_begin_0"), val = tensor<int32, [3]>([0, -1, 0])];
            tensor<int32, [3]> var_696_end_0 = const()[name = tensor<string, []>("op_696_end_0"), val = tensor<int32, [3]>([1, 10, 512])];
            tensor<bool, [3]> var_696_end_mask_0 = const()[name = tensor<string, []>("op_696_end_mask_0"), val = tensor<bool, [3]>([true, true, true])];
            tensor<fp16, [1, 1, 512]> var_696_cast_fp16 = slice_by_index(begin = var_696_begin_0, end = var_696_end_0, end_mask = var_696_end_mask_0, x = emb_cast_fp16)[name = tensor<string, []>("op_696_cast_fp16")];
            tensor<int32, [3]> var_698 = const()[name = tensor<string, []>("op_698"), val = tensor<int32, [3]>([1, 0, 2])];
            tensor<int32, [4]> var_703 = const()[name = tensor<string, []>("op_703"), val = tensor<int32, [4]>([1, 1, 16, 32])];
            tensor<fp16, [1, 1, 16, 32]> var_704_cast_fp16 = reshape(shape = var_703, x = var_696_cast_fp16)[name = tensor<string, []>("op_704_cast_fp16")];
            tensor<int32, [4]> transpose_2_perm_0 = const()[name = tensor<string, []>("transpose_2_perm_0"), val = tensor<int32, [4]>([2, 0, 1, 3])];
            tensor<int32, [3]> concat_17 = const()[name = tensor<string, []>("concat_17"), val = tensor<int32, [3]>([16, 1, 32])];
            tensor<fp16, [16, 1, 1, 32]> transpose_2_cast_fp16 = transpose(perm = transpose_2_perm_0, x = var_704_cast_fp16)[name = tensor<string, []>("transpose_44")];
            tensor<fp16, [16, 1, 32]> reshape_3_cast_fp16 = reshape(shape = concat_17, x = transpose_2_cast_fp16)[name = tensor<string, []>("reshape_3_cast_fp16")];
            tensor<bool, []> matmul_1_transpose_x_0 = const()[name = tensor<string, []>("matmul_1_transpose_x_0"), val = tensor<bool, []>(false)];
            tensor<bool, []> matmul_1_transpose_y_0 = const()[name = tensor<string, []>("matmul_1_transpose_y_0"), val = tensor<bool, []>(false)];
            tensor<fp16, [16, 32, 16]> original_enc_emb_gru_linear_in_0_weight_to_fp16 = const()[name = tensor<string, []>("original_enc_emb_gru_linear_in_0_weight_to_fp16"), val = tensor<fp16, [16, 32, 16]>(BLOBFILE(path = tensor<string, []>("@model_path/weights/weight.bin"), offset = tensor<uint64, []>(145088)))];
            tensor<fp16, [16, 1, 16]> matmul_1_cast_fp16 = matmul(transpose_x = matmul_1_transpose_x_0, transpose_y = matmul_1_transpose_y_0, x = reshape_3_cast_fp16, y = original_enc_emb_gru_linear_in_0_weight_to_fp16)[name = tensor<string, []>("matmul_1_cast_fp16")];
            tensor<int32, [4]> concat_22 = const()[name = tensor<string, []>("concat_22"), val = tensor<int32, [4]>([16, 1, 1, 16])];
            tensor<fp16, [16, 1, 1, 16]> reshape_5_cast_fp16 = reshape(shape = concat_22, x = matmul_1_cast_fp16)[name = tensor<string, []>("reshape_5_cast_fp16")];
            tensor<int32, [4]> x_7_perm_0 = const()[name = tensor<string, []>("x_7_perm_0"), val = tensor<int32, [4]>([1, 2, 0, 3])];
            tensor<int32, [3]> concat_23 = const()[name = tensor<string, []>("concat_23"), val = tensor<int32, [3]>([1, 1, 256])];
            tensor<fp16, [1, 1, 16, 16]> x_7_cast_fp16 = transpose(perm = x_7_perm_0, x = reshape_5_cast_fp16)[name = tensor<string, []>("transpose_43")];
            tensor<fp16, [1, 1, 256]> input_51_cast_fp16 = reshape(shape = concat_23, x = x_7_cast_fp16)[name = tensor<string, []>("input_51_cast_fp16")];
            tensor<fp16, [1, 1, 256]> input_53_cast_fp16 = relu(x = input_51_cast_fp16)[name = tensor<string, []>("input_53_cast_fp16")];
            tensor<int32, [3]> transpose_4_perm_0 = const()[name = tensor<string, []>("transpose_4_perm_0"), val = tensor<int32, [3]>([1, 0, 2])];
            tensor<int32, [1]> slice_by_index_23 = const()[name = tensor<string, []>("slice_by_index_23"), val = tensor<int32, [1]>([1])];
            tensor<int32, []> concat_25_axis_0 = const()[name = tensor<string, []>("concat_25_axis_0"), val = tensor<int32, []>(0)];
            tensor<bool, []> concat_25_interleave_0 = const()[name = tensor<string, []>("concat_25_interleave_0"), val = tensor<bool, []>(false)];
            tensor<fp16, [1, 1, 256]> fill_0_to_fp16 = const()[name = tensor<string, []>("fill_0_to_fp16"), val = tensor<fp16, [1, 1, 256]>(BLOBFILE(path = tensor<string, []>("@model_path/weights/weight.bin"), offset = tensor<uint64, []>(161536)))];
            tensor<fp16, [1, 1, 256]> var_699_cast_fp16 = transpose(perm = var_698, x = h_enc_in)[name = tensor<string, []>("transpose_45")];
            tensor<fp16, [2, 1, 256]> concat_25_cast_fp16 = concat(axis = concat_25_axis_0, interleave = concat_25_interleave_0, values = (var_699_cast_fp16, fill_0_to_fp16))[name = tensor<string, []>("concat_25_cast_fp16")];
            tensor<string, []> concat_25_cast_fp16_to_fp32_dtype_0 = const()[name = tensor<string, []>("concat_25_cast_fp16_to_fp32_dtype_0"), val = tensor<string, []>("fp32")];
            tensor<int32, [1]> while_loop_0_loop_vars0_0 = const()[name = tensor<string, []>("while_loop_0_loop_vars0_0"), val = tensor<int32, [1]>([0])];
            tensor<fp32, [2, 1, 256]> concat_25_cast_fp16_to_fp32 = cast(dtype = concat_25_cast_fp16_to_fp32_dtype_0, x = concat_25_cast_fp16)[name = tensor<string, []>("cast_52")];
            tensor<fp16, [1, 1, 256]> transpose_4_cast_fp16 = transpose(perm = transpose_4_perm_0, x = input_53_cast_fp16)[name = tensor<string, []>("transpose_42")];
            tensor<int32, [1]> while_loop_0_0, tensor<fp32, [2, 1, 256]> while_loop_0_1 = while_loop(loop_vars = (while_loop_0_loop_vars0_0, concat_25_cast_fp16_to_fp32))[name = tensor<string, []>("while_loop_0")]
                (tensor<int32, [1]> while_loop_0_loop_vars0_0_x0_1_1_1_0, tensor<fp32, [2, 1, 256]> concat_25_x0_1_1_1_0) {
                    tensor<bool, [1]> less_1 = less(x = while_loop_0_loop_vars0_0_x0_1_1_1_0, y = slice_by_index_23)[name = tensor<string, []>("less_1")];
                } -> (less_1)
                (tensor<int32, [1]> while_loop_0_loop_vars0_0_x0_1_1_1_1, tensor<fp32, [2, 1, 256]> concat_25_x0_1_1_1_1) {
                    tensor<int32, []> gather_2_axis_0 = const()[name = tensor<string, []>("gather_2_axis_0"), val = tensor<int32, []>(0)];
                    tensor<int32, []> gather_2_batch_dims_0 = const()[name = tensor<string, []>("gather_2_batch_dims_0"), val = tensor<int32, []>(0)];
                    tensor<fp16, [1, 1, 256]> gather_2_cast_fp16 = gather(axis = gather_2_axis_0, batch_dims = gather_2_batch_dims_0, indices = while_loop_0_loop_vars0_0_x0_1_1_1_1, x = transpose_4_cast_fp16)[name = tensor<string, []>("gather_2_cast_fp16")];
                    tensor<int32, []> gather_3_axis_0 = const()[name = tensor<string, []>("gather_3_axis_0"), val = tensor<int32, []>(0)];
                    tensor<int32, []> gather_3_batch_dims_0 = const()[name = tensor<string, []>("gather_3_batch_dims_0"), val = tensor<int32, []>(0)];
                    tensor<string, []> concat_25_x0_1_to_fp16_dtype_0 = const()[name = tensor<string, []>("concat_25_x0_1_to_fp16_dtype_0"), val = tensor<string, []>("fp16")];
                    tensor<fp16, [2, 1, 256]> concat_25_x0_1_to_fp16 = cast(dtype = concat_25_x0_1_to_fp16_dtype_0, x = concat_25_x0_1_1_1_1)[name = tensor<string, []>("cast_51")];
                    tensor<fp16, [1, 1, 256]> gather_3_cast_fp16 = gather(axis = gather_3_axis_0, batch_dims = gather_3_batch_dims_0, indices = while_loop_0_loop_vars0_0_x0_1_1_1_1, x = concat_25_x0_1_to_fp16)[name = tensor<string, []>("gather_3_cast_fp16")];
                    tensor<int32, [1]> squeeze_2_axes_0 = const()[name = tensor<string, []>("squeeze_2_axes_0"), val = tensor<int32, [1]>([0])];
                    tensor<fp16, [1, 256]> squeeze_2_cast_fp16 = squeeze(axes = squeeze_2_axes_0, x = gather_2_cast_fp16)[name = tensor<string, []>("squeeze_2_cast_fp16")];
                    tensor<int32, [1]> squeeze_3_axes_0 = const()[name = tensor<string, []>("squeeze_3_axes_0"), val = tensor<int32, [1]>([0])];
                    tensor<fp16, [1, 256]> squeeze_3_cast_fp16 = squeeze(axes = squeeze_3_axes_0, x = gather_3_cast_fp16)[name = tensor<string, []>("squeeze_3_cast_fp16")];
                    tensor<fp16, [256, 256]> linear_6_weight_0_to_fp16 = const()[name = tensor<string, []>("linear_6_weight_0_to_fp16"), val = tensor<fp16, [256, 256]>(BLOBFILE(path = tensor<string, []>("@model_path/weights/weight.bin"), offset = tensor<uint64, []>(162112)))];
                    tensor<fp16, [256]> linear_6_bias_0_to_fp16 = const()[name = tensor<string, []>("linear_6_bias_0_to_fp16"), val = tensor<fp16, [256]>(BLOBFILE(path = tensor<string, []>("@model_path/weights/weight.bin"), offset = tensor<uint64, []>(293248)))];
                    tensor<fp16, [1, 256]> linear_6_cast_fp16 = linear(bias = linear_6_bias_0_to_fp16, weight = linear_6_weight_0_to_fp16, x = squeeze_2_cast_fp16)[name = tensor<string, []>("linear_6_cast_fp16")];
                    tensor<fp16, [256, 256]> linear_7_weight_0_to_fp16 = const()[name = tensor<string, []>("linear_7_weight_0_to_fp16"), val = tensor<fp16, [256, 256]>(BLOBFILE(path = tensor<string, []>("@model_path/weights/weight.bin"), offset = tensor<uint64, []>(293824)))];
                    tensor<fp16, [256]> linear_7_bias_0_to_fp16 = const()[name = tensor<string, []>("linear_7_bias_0_to_fp16"), val = tensor<fp16, [256]>(BLOBFILE(path = tensor<string, []>("@model_path/weights/weight.bin"), offset = tensor<uint64, []>(424960)))];
                    tensor<fp16, [1, 256]> linear_7_cast_fp16 = linear(bias = linear_7_bias_0_to_fp16, weight = linear_7_weight_0_to_fp16, x = squeeze_3_cast_fp16)[name = tensor<string, []>("linear_7_cast_fp16")];
                    tensor<fp16, [1, 256]> add_5_cast_fp16 = add(x = linear_6_cast_fp16, y = linear_7_cast_fp16)[name = tensor<string, []>("add_5_cast_fp16")];
                    tensor<fp16, [1, 256]> sigmoid_2_cast_fp16 = sigmoid(x = add_5_cast_fp16)[name = tensor<string, []>("sigmoid_2_cast_fp16")];
                    tensor<fp16, [256, 256]> linear_8_weight_0_to_fp16 = const()[name = tensor<string, []>("linear_8_weight_0_to_fp16"), val = tensor<fp16, [256, 256]>(BLOBFILE(path = tensor<string, []>("@model_path/weights/weight.bin"), offset = tensor<uint64, []>(425536)))];
                    tensor<fp16, [256]> linear_8_bias_0_to_fp16 = const()[name = tensor<string, []>("linear_8_bias_0_to_fp16"), val = tensor<fp16, [256]>(BLOBFILE(path = tensor<string, []>("@model_path/weights/weight.bin"), offset = tensor<uint64, []>(556672)))];
                    tensor<fp16, [1, 256]> linear_8_cast_fp16 = linear(bias = linear_8_bias_0_to_fp16, weight = linear_8_weight_0_to_fp16, x = squeeze_2_cast_fp16)[name = tensor<string, []>("linear_8_cast_fp16")];
                    tensor<fp16, [256, 256]> linear_9_weight_0_to_fp16 = const()[name = tensor<string, []>("linear_9_weight_0_to_fp16"), val = tensor<fp16, [256, 256]>(BLOBFILE(path = tensor<string, []>("@model_path/weights/weight.bin"), offset = tensor<uint64, []>(557248)))];
                    tensor<fp16, [256]> linear_9_bias_0_to_fp16 = const()[name = tensor<string, []>("linear_9_bias_0_to_fp16"), val = tensor<fp16, [256]>(BLOBFILE(path = tensor<string, []>("@model_path/weights/weight.bin"), offset = tensor<uint64, []>(688384)))];
                    tensor<fp16, [1, 256]> linear_9_cast_fp16 = linear(bias = linear_9_bias_0_to_fp16, weight = linear_9_weight_0_to_fp16, x = squeeze_3_cast_fp16)[name = tensor<string, []>("linear_9_cast_fp16")];
                    tensor<fp16, [1, 256]> add_6_cast_fp16 = add(x = linear_8_cast_fp16, y = linear_9_cast_fp16)[name = tensor<string, []>("add_6_cast_fp16")];
                    tensor<fp16, [1, 256]> sigmoid_3_cast_fp16 = sigmoid(x = add_6_cast_fp16)[name = tensor<string, []>("sigmoid_3_cast_fp16")];
                    tensor<fp16, [256, 256]> linear_10_weight_0_to_fp16 = const()[name = tensor<string, []>("linear_10_weight_0_to_fp16"), val = tensor<fp16, [256, 256]>(BLOBFILE(path = tensor<string, []>("@model_path/weights/weight.bin"), offset = tensor<uint64, []>(688960)))];
                    tensor<fp16, [256]> linear_10_bias_0_to_fp16 = const()[name = tensor<string, []>("linear_10_bias_0_to_fp16"), val = tensor<fp16, [256]>(BLOBFILE(path = tensor<string, []>("@model_path/weights/weight.bin"), offset = tensor<uint64, []>(820096)))];
                    tensor<fp16, [1, 256]> linear_10_cast_fp16 = linear(bias = linear_10_bias_0_to_fp16, weight = linear_10_weight_0_to_fp16, x = squeeze_2_cast_fp16)[name = tensor<string, []>("linear_10_cast_fp16")];
                    tensor<fp16, [256, 256]> linear_11_weight_0_to_fp16 = const()[name = tensor<string, []>("linear_11_weight_0_to_fp16"), val = tensor<fp16, [256, 256]>(BLOBFILE(path = tensor<string, []>("@model_path/weights/weight.bin"), offset = tensor<uint64, []>(820672)))];
                    tensor<fp16, [256]> linear_11_bias_0_to_fp16 = const()[name = tensor<string, []>("linear_11_bias_0_to_fp16"), val = tensor<fp16, [256]>(BLOBFILE(path = tensor<string, []>("@model_path/weights/weight.bin"), offset = tensor<uint64, []>(951808)))];
                    tensor<fp16, [1, 256]> linear_11_cast_fp16 = linear(bias = linear_11_bias_0_to_fp16, weight = linear_11_weight_0_to_fp16, x = squeeze_3_cast_fp16)[name = tensor<string, []>("linear_11_cast_fp16")];
                    tensor<fp16, [1, 256]> mul_3_cast_fp16 = mul(x = sigmoid_2_cast_fp16, y = linear_11_cast_fp16)[name = tensor<string, []>("mul_3_cast_fp16")];
                    tensor<fp16, [1, 256]> add_7_cast_fp16 = add(x = linear_10_cast_fp16, y = mul_3_cast_fp16)[name = tensor<string, []>("add_7_cast_fp16")];
                    tensor<fp16, [1, 256]> tanh_1_cast_fp16 = tanh(x = add_7_cast_fp16)[name = tensor<string, []>("tanh_1_cast_fp16")];
                    tensor<fp16, []> sub_1_x_0_to_fp16 = const()[name = tensor<string, []>("sub_1_x_0_to_fp16"), val = tensor<fp16, []>(0x1p+0)];
                    tensor<fp16, [1, 256]> sub_1_cast_fp16 = sub(x = sub_1_x_0_to_fp16, y = sigmoid_3_cast_fp16)[name = tensor<string, []>("sub_1_cast_fp16")];
                    tensor<fp16, [1, 256]> mul_4_cast_fp16 = mul(x = sub_1_cast_fp16, y = tanh_1_cast_fp16)[name = tensor<string, []>("mul_4_cast_fp16")];
                    tensor<fp16, [1, 256]> mul_5_cast_fp16 = mul(x = sigmoid_3_cast_fp16, y = squeeze_3_cast_fp16)[name = tensor<string, []>("mul_5_cast_fp16")];
                    tensor<fp16, [1, 256]> add_8_cast_fp16 = add(x = mul_4_cast_fp16, y = mul_5_cast_fp16)[name = tensor<string, []>("add_8_cast_fp16")];
                    tensor<int32, []> add_9_y_0 = const()[name = tensor<string, []>("add_9_y_0"), val = tensor<int32, []>(1)];
                    tensor<int32, [1]> add_9 = add(x = while_loop_0_loop_vars0_0_x0_1_1_1_1, y = add_9_y_0)[name = tensor<string, []>("add_9")];
                    tensor<int32, [1]> expand_dims_1_axes_0 = const()[name = tensor<string, []>("expand_dims_1_axes_0"), val = tensor<int32, [1]>([0])];
                    tensor<fp16, [1, 1, 256]> expand_dims_1_cast_fp16 = expand_dims(axes = expand_dims_1_axes_0, x = add_8_cast_fp16)[name = tensor<string, []>("expand_dims_1_cast_fp16")];
                    tensor<int32, []> scatter_1_axis_0 = const()[name = tensor<string, []>("scatter_1_axis_0"), val = tensor<int32, []>(0)];
                    tensor<string, []> scatter_1_mode_0 = const()[name = tensor<string, []>("scatter_1_mode_0"), val = tensor<string, []>("add")];
                    tensor<fp16, [2, 1, 256]> scatter_1_cast_fp16 = scatter(axis = scatter_1_axis_0, data = concat_25_x0_1_to_fp16, indices = add_9, mode = scatter_1_mode_0, updates = expand_dims_1_cast_fp16)[name = tensor<string, []>("scatter_1_cast_fp16")];
                    tensor<string, []> scatter_1_cast_fp16_to_fp32_dtype_0 = const()[name = tensor<string, []>("scatter_1_cast_fp16_to_fp32_dtype_0"), val = tensor<string, []>("fp32")];
                    tensor<fp32, [2, 1, 256]> scatter_1_cast_fp16_to_fp32 = cast(dtype = scatter_1_cast_fp16_to_fp32_dtype_0, x = scatter_1_cast_fp16)[name = tensor<string, []>("cast_50")];
                } -> (add_9, scatter_1_cast_fp16_to_fp32);
            tensor<int32, [3]> x_9_tmp_begin_0 = const()[name = tensor<string, []>("x_9_tmp_begin_0"), val = tensor<int32, [3]>([1, 0, 0])];
            tensor<int32, [3]> x_9_tmp_end_0 = const()[name = tensor<string, []>("x_9_tmp_end_0"), val = tensor<int32, [3]>([0, 0, 0])];
            tensor<bool, [3]> x_9_tmp_begin_mask_0 = const()[name = tensor<string, []>("x_9_tmp_begin_mask_0"), val = tensor<bool, [3]>([false, true, true])];
            tensor<bool, [3]> x_9_tmp_end_mask_0 = const()[name = tensor<string, []>("x_9_tmp_end_mask_0"), val = tensor<bool, [3]>([true, true, true])];
            tensor<string, []> while_loop_0_1_to_fp16_dtype_0 = const()[name = tensor<string, []>("while_loop_0_1_to_fp16_dtype_0"), val = tensor<string, []>("fp16")];
            tensor<fp16, [2, 1, 256]> while_loop_0_1_to_fp16 = cast(dtype = while_loop_0_1_to_fp16_dtype_0, x = while_loop_0_1)[name = tensor<string, []>("cast_49")];
            tensor<fp16, [1, 1, 256]> x_9_tmp_cast_fp16 = slice_by_index(begin = x_9_tmp_begin_0, begin_mask = x_9_tmp_begin_mask_0, end = x_9_tmp_end_0, end_mask = x_9_tmp_end_mask_0, x = while_loop_0_1_to_fp16)[name = tensor<string, []>("x_9_tmp_cast_fp16")];
            tensor<int32, [3]> x_9_perm_0 = const()[name = tensor<string, []>("x_9_perm_0"), val = tensor<int32, [3]>([1, 0, 2])];
            tensor<int32, [4]> var_717 = const()[name = tensor<string, []>("op_717"), val = tensor<int32, [4]>([1, 1, 16, 16])];
            tensor<fp16, [1, 1, 256]> h_enc_out = transpose(perm = x_9_perm_0, x = x_9_tmp_cast_fp16)[name = tensor<string, []>("transpose_41")];
            tensor<fp16, [1, 1, 16, 16]> var_718_cast_fp16 = reshape(shape = var_717, x = h_enc_out)[name = tensor<string, []>("op_718_cast_fp16")];
            tensor<int32, [4]> transpose_5_perm_0 = const()[name = tensor<string, []>("transpose_5_perm_0"), val = tensor<int32, [4]>([2, 0, 1, 3])];
            tensor<int32, [3]> concat_30 = const()[name = tensor<string, []>("concat_30"), val = tensor<int32, [3]>([16, 1, 16])];
            tensor<fp16, [16, 1, 1, 16]> transpose_5_cast_fp16 = transpose(perm = transpose_5_perm_0, x = var_718_cast_fp16)[name = tensor<string, []>("transpose_40")];
            tensor<fp16, [16, 1, 16]> reshape_6_cast_fp16 = reshape(shape = concat_30, x = transpose_5_cast_fp16)[name = tensor<string, []>("reshape_6_cast_fp16")];
            tensor<bool, []> matmul_2_transpose_x_0 = const()[name = tensor<string, []>("matmul_2_transpose_x_0"), val = tensor<bool, []>(false)];
            tensor<bool, []> matmul_2_transpose_y_0 = const()[name = tensor<string, []>("matmul_2_transpose_y_0"), val = tensor<bool, []>(false)];
            tensor<fp16, [16, 16, 32]> original_enc_emb_gru_linear_out_0_weight_to_fp16 = const()[name = tensor<string, []>("original_enc_emb_gru_linear_out_0_weight_to_fp16"), val = tensor<fp16, [16, 16, 32]>(BLOBFILE(path = tensor<string, []>("@model_path/weights/weight.bin"), offset = tensor<uint64, []>(952384)))];
            tensor<fp16, [16, 1, 32]> matmul_2_cast_fp16 = matmul(transpose_x = matmul_2_transpose_x_0, transpose_y = matmul_2_transpose_y_0, x = reshape_6_cast_fp16, y = original_enc_emb_gru_linear_out_0_weight_to_fp16)[name = tensor<string, []>("matmul_2_cast_fp16")];
            tensor<int32, [4]> concat_35 = const()[name = tensor<string, []>("concat_35"), val = tensor<int32, [4]>([16, 1, 1, 32])];
            tensor<fp16, [16, 1, 1, 32]> reshape_8_cast_fp16 = reshape(shape = concat_35, x = matmul_2_cast_fp16)[name = tensor<string, []>("reshape_8_cast_fp16")];
            tensor<int32, [4]> x_11_perm_0 = const()[name = tensor<string, []>("x_11_perm_0"), val = tensor<int32, [4]>([1, 2, 0, 3])];
            tensor<int32, [3]> concat_36 = const()[name = tensor<string, []>("concat_36"), val = tensor<int32, [3]>([1, 1, 512])];
            tensor<fp16, [1, 1, 16, 32]> x_11_cast_fp16 = transpose(perm = x_11_perm_0, x = reshape_8_cast_fp16)[name = tensor<string, []>("transpose_39")];
            tensor<fp16, [1, 1, 512]> input_55_cast_fp16 = reshape(shape = concat_36, x = x_11_cast_fp16)[name = tensor<string, []>("input_55_cast_fp16")];
            tensor<fp16, [1, 1, 512]> input_57_cast_fp16 = relu(x = input_55_cast_fp16)[name = tensor<string, []>("input_57_cast_fp16")];
            tensor<fp16, [1, 512]> original_enc_lsnr_fc_0_weight_to_fp16 = const()[name = tensor<string, []>("original_enc_lsnr_fc_0_weight_to_fp16"), val = tensor<fp16, [1, 512]>(BLOBFILE(path = tensor<string, []>("@model_path/weights/weight.bin"), offset = tensor<uint64, []>(968832)))];
            tensor<fp16, [1]> original_enc_lsnr_fc_0_bias_to_fp16 = const()[name = tensor<string, []>("original_enc_lsnr_fc_0_bias_to_fp16"), val = tensor<fp16, [1]>([-0x1.33p-2])];
            tensor<fp16, [1, 1, 1]> linear_12_cast_fp16 = linear(bias = original_enc_lsnr_fc_0_bias_to_fp16, weight = original_enc_lsnr_fc_0_weight_to_fp16, x = input_57_cast_fp16)[name = tensor<string, []>("linear_12_cast_fp16")];
            tensor<fp16, [1, 1, 1]> var_729_cast_fp16 = sigmoid(x = linear_12_cast_fp16)[name = tensor<string, []>("op_729_cast_fp16")];
            tensor<fp16, []> var_730_promoted_to_fp16 = const()[name = tensor<string, []>("op_730_promoted_to_fp16"), val = tensor<fp16, []>(0x1.9p+5)];
            tensor<fp16, [1, 1, 1]> var_731_cast_fp16 = mul(x = var_729_cast_fp16, y = var_730_promoted_to_fp16)[name = tensor<string, []>("op_731_cast_fp16")];
            tensor<fp16, []> var_732_promoted_to_fp16 = const()[name = tensor<string, []>("op_732_promoted_to_fp16"), val = tensor<fp16, []>(-0x1.ep+3)];
            tensor<fp16, [1, 1, 1]> lsnr = add(x = var_731_cast_fp16, y = var_732_promoted_to_fp16)[name = tensor<string, []>("op_733_cast_fp16")];
            tensor<int32, [4]> var_736_begin_0 = const()[name = tensor<string, []>("op_736_begin_0"), val = tensor<int32, [4]>([0, 0, -1, 0])];
            tensor<int32, [4]> var_736_end_0 = const()[name = tensor<string, []>("op_736_end_0"), val = tensor<int32, [4]>([1, 64, 10, 32])];
            tensor<bool, [4]> var_736_end_mask_0 = const()[name = tensor<string, []>("op_736_end_mask_0"), val = tensor<bool, [4]>([true, true, true, true])];
            tensor<fp16, [1, 64, 1, 32]> var_736_cast_fp16 = slice_by_index(begin = var_736_begin_0, end = var_736_end_0, end_mask = var_736_end_mask_0, x = input_7_cast_fp16)[name = tensor<string, []>("op_736_cast_fp16")];
            tensor<int32, [4]> var_740_begin_0 = const()[name = tensor<string, []>("op_740_begin_0"), val = tensor<int32, [4]>([0, 0, -1, 0])];
            tensor<int32, [4]> var_740_end_0 = const()[name = tensor<string, []>("op_740_end_0"), val = tensor<int32, [4]>([1, 64, 10, 16])];
            tensor<bool, [4]> var_740_end_mask_0 = const()[name = tensor<string, []>("op_740_end_mask_0"), val = tensor<bool, [4]>([true, true, true, true])];
            tensor<fp16, [1, 64, 1, 16]> var_740_cast_fp16 = slice_by_index(begin = var_740_begin_0, end = var_740_end_0, end_mask = var_740_end_mask_0, x = input_15_cast_fp16)[name = tensor<string, []>("op_740_cast_fp16")];
            tensor<int32, [4]> var_744_begin_0 = const()[name = tensor<string, []>("op_744_begin_0"), val = tensor<int32, [4]>([0, 0, -1, 0])];
            tensor<int32, [4]> var_744_end_0 = const()[name = tensor<string, []>("op_744_end_0"), val = tensor<int32, [4]>([1, 64, 10, 8])];
            tensor<bool, [4]> var_744_end_mask_0 = const()[name = tensor<string, []>("op_744_end_mask_0"), val = tensor<bool, [4]>([true, true, true, true])];
            tensor<fp16, [1, 64, 1, 8]> var_744_cast_fp16 = slice_by_index(begin = var_744_begin_0, end = var_744_end_0, end_mask = var_744_end_mask_0, x = input_23_cast_fp16)[name = tensor<string, []>("op_744_cast_fp16")];
            tensor<int32, [4]> var_748_begin_0 = const()[name = tensor<string, []>("op_748_begin_0"), val = tensor<int32, [4]>([0, 0, -1, 0])];
            tensor<int32, [4]> var_748_end_0 = const()[name = tensor<string, []>("op_748_end_0"), val = tensor<int32, [4]>([1, 64, 10, 8])];
            tensor<bool, [4]> var_748_end_mask_0 = const()[name = tensor<string, []>("op_748_end_mask_0"), val = tensor<bool, [4]>([true, true, true, true])];
            tensor<fp16, [1, 64, 1, 8]> var_748_cast_fp16 = slice_by_index(begin = var_748_begin_0, end = var_748_end_0, end_mask = var_748_end_mask_0, x = e3_1_cast_fp16)[name = tensor<string, []>("op_748_cast_fp16")];
            tensor<int32, [3]> var_774 = const()[name = tensor<string, []>("op_774"), val = tensor<int32, [3]>([1, 0, 2])];
            tensor<int32, [4]> var_779 = const()[name = tensor<string, []>("op_779"), val = tensor<int32, [4]>([1, 1, 16, 32])];
            tensor<fp16, [1, 1, 16, 32]> var_780_cast_fp16 = reshape(shape = var_779, x = input_57_cast_fp16)[name = tensor<string, []>("op_780_cast_fp16")];
            tensor<int32, [4]> transpose_7_perm_0 = const()[name = tensor<string, []>("transpose_7_perm_0"), val = tensor<int32, [4]>([2, 0, 1, 3])];
            tensor<int32, [3]> concat_41 = const()[name = tensor<string, []>("concat_41"), val = tensor<int32, [3]>([16, 1, 32])];
            tensor<fp16, [16, 1, 1, 32]> transpose_7_cast_fp16 = transpose(perm = transpose_7_perm_0, x = var_780_cast_fp16)[name = tensor<string, []>("transpose_37")];
            tensor<fp16, [16, 1, 32]> reshape_9_cast_fp16 = reshape(shape = concat_41, x = transpose_7_cast_fp16)[name = tensor<string, []>("reshape_9_cast_fp16")];
            tensor<bool, []> matmul_3_transpose_x_0 = const()[name = tensor<string, []>("matmul_3_transpose_x_0"), val = tensor<bool, []>(false)];
            tensor<bool, []> matmul_3_transpose_y_0 = const()[name = tensor<string, []>("matmul_3_transpose_y_0"), val = tensor<bool, []>(false)];
            tensor<fp16, [16, 32, 16]> original_erb_dec_emb_gru_linear_in_0_weight_to_fp16 = const()[name = tensor<string, []>("original_erb_dec_emb_gru_linear_in_0_weight_to_fp16"), val = tensor<fp16, [16, 32, 16]>(BLOBFILE(path = tensor<string, []>("@model_path/weights/weight.bin"), offset = tensor<uint64, []>(969920)))];
            tensor<fp16, [16, 1, 16]> matmul_3_cast_fp16 = matmul(transpose_x = matmul_3_transpose_x_0, transpose_y = matmul_3_transpose_y_0, x = reshape_9_cast_fp16, y = original_erb_dec_emb_gru_linear_in_0_weight_to_fp16)[name = tensor<string, []>("matmul_3_cast_fp16")];
            tensor<int32, [4]> concat_46 = const()[name = tensor<string, []>("concat_46"), val = tensor<int32, [4]>([16, 1, 1, 16])];
            tensor<fp16, [16, 1, 1, 16]> reshape_11_cast_fp16 = reshape(shape = concat_46, x = matmul_3_cast_fp16)[name = tensor<string, []>("reshape_11_cast_fp16")];
            tensor<int32, [4]> x_13_perm_0 = const()[name = tensor<string, []>("x_13_perm_0"), val = tensor<int32, [4]>([1, 2, 0, 3])];
            tensor<int32, [3]> concat_47 = const()[name = tensor<string, []>("concat_47"), val = tensor<int32, [3]>([1, 1, 256])];
            tensor<fp16, [1, 1, 16, 16]> x_13_cast_fp16 = transpose(perm = x_13_perm_0, x = reshape_11_cast_fp16)[name = tensor<string, []>("transpose_36")];
            tensor<fp16, [1, 1, 256]> input_61_cast_fp16 = reshape(shape = concat_47, x = x_13_cast_fp16)[name = tensor<string, []>("input_61_cast_fp16")];
            tensor<fp16, [1, 1, 256]> input_63_cast_fp16 = relu(x = input_61_cast_fp16)[name = tensor<string, []>("input_63_cast_fp16")];
            tensor<int32, [3]> transpose_9_perm_0 = const()[name = tensor<string, []>("transpose_9_perm_0"), val = tensor<int32, [3]>([1, 0, 2])];
            tensor<int32, [3]> slice_by_index_43_begin_0 = const()[name = tensor<string, []>("slice_by_index_43_begin_0"), val = tensor<int32, [3]>([0, 0, 0])];
            tensor<int32, [3]> slice_by_index_43_end_0 = const()[name = tensor<string, []>("slice_by_index_43_end_0"), val = tensor<int32, [3]>([1, 0, 0])];
            tensor<bool, [3]> slice_by_index_43_begin_mask_0 = const()[name = tensor<string, []>("slice_by_index_43_begin_mask_0"), val = tensor<bool, [3]>([false, true, true])];
            tensor<bool, [3]> slice_by_index_43_end_mask_0 = const()[name = tensor<string, []>("slice_by_index_43_end_mask_0"), val = tensor<bool, [3]>([false, true, true])];
            tensor<fp16, [2, 1, 256]> var_775_cast_fp16 = transpose(perm = var_774, x = h_erb_in)[name = tensor<string, []>("transpose_38")];
            tensor<fp16, [1, 1, 256]> slice_by_index_43_cast_fp16 = slice_by_index(begin = slice_by_index_43_begin_0, begin_mask = slice_by_index_43_begin_mask_0, end = slice_by_index_43_end_0, end_mask = slice_by_index_43_end_mask_0, x = var_775_cast_fp16)[name = tensor<string, []>("slice_by_index_43_cast_fp16")];
            tensor<int32, [1]> slice_by_index_44 = const()[name = tensor<string, []>("slice_by_index_44"), val = tensor<int32, [1]>([1])];
            tensor<int32, []> concat_49_axis_0 = const()[name = tensor<string, []>("concat_49_axis_0"), val = tensor<int32, []>(0)];
            tensor<bool, []> concat_49_interleave_0 = const()[name = tensor<string, []>("concat_49_interleave_0"), val = tensor<bool, []>(false)];
            tensor<fp16, [2, 1, 256]> concat_49_cast_fp16 = concat(axis = concat_49_axis_0, interleave = concat_49_interleave_0, values = (slice_by_index_43_cast_fp16, fill_0_to_fp16))[name = tensor<string, []>("concat_49_cast_fp16")];
            tensor<string, []> concat_49_cast_fp16_to_fp32_dtype_0 = const()[name = tensor<string, []>("concat_49_cast_fp16_to_fp32_dtype_0"), val = tensor<string, []>("fp32")];
            tensor<int32, [1]> while_loop_1_loop_vars0_0 = const()[name = tensor<string, []>("while_loop_1_loop_vars0_0"), val = tensor<int32, [1]>([0])];
            tensor<fp32, [2, 1, 256]> concat_49_cast_fp16_to_fp32 = cast(dtype = concat_49_cast_fp16_to_fp32_dtype_0, x = concat_49_cast_fp16)[name = tensor<string, []>("cast_48")];
            tensor<fp16, [1, 1, 256]> transpose_9_cast_fp16 = transpose(perm = transpose_9_perm_0, x = input_63_cast_fp16)[name = tensor<string, []>("transpose_35")];
            tensor<int32, [1]> while_loop_1_0, tensor<fp32, [2, 1, 256]> while_loop_1_1 = while_loop(loop_vars = (while_loop_1_loop_vars0_0, concat_49_cast_fp16_to_fp32))[name = tensor<string, []>("while_loop_1")]
                (tensor<int32, [1]> while_loop_1_loop_vars0_0_x0_1_1_1_0, tensor<fp32, [2, 1, 256]> concat_49_x0_1_1_1_0) {
                    tensor<bool, [1]> less_3 = less(x = while_loop_1_loop_vars0_0_x0_1_1_1_0, y = slice_by_index_44)[name = tensor<string, []>("less_3")];
                } -> (less_3)
                (tensor<int32, [1]> while_loop_1_loop_vars0_0_x0_1_1_1_1, tensor<fp32, [2, 1, 256]> concat_49_x0_1_1_1_1) {
                    tensor<int32, []> gather_6_axis_0 = const()[name = tensor<string, []>("gather_6_axis_0"), val = tensor<int32, []>(0)];
                    tensor<int32, []> gather_6_batch_dims_0 = const()[name = tensor<string, []>("gather_6_batch_dims_0"), val = tensor<int32, []>(0)];
                    tensor<fp16, [1, 1, 256]> gather_6_cast_fp16 = gather(axis = gather_6_axis_0, batch_dims = gather_6_batch_dims_0, indices = while_loop_1_loop_vars0_0_x0_1_1_1_1, x = transpose_9_cast_fp16)[name = tensor<string, []>("gather_6_cast_fp16")];
                    tensor<int32, []> gather_7_axis_0 = const()[name = tensor<string, []>("gather_7_axis_0"), val = tensor<int32, []>(0)];
                    tensor<int32, []> gather_7_batch_dims_0 = const()[name = tensor<string, []>("gather_7_batch_dims_0"), val = tensor<int32, []>(0)];
                    tensor<string, []> concat_49_x0_1_to_fp16_dtype_0 = const()[name = tensor<string, []>("concat_49_x0_1_to_fp16_dtype_0"), val = tensor<string, []>("fp16")];
                    tensor<fp16, [2, 1, 256]> concat_49_x0_1_to_fp16 = cast(dtype = concat_49_x0_1_to_fp16_dtype_0, x = concat_49_x0_1_1_1_1)[name = tensor<string, []>("cast_47")];
                    tensor<fp16, [1, 1, 256]> gather_7_cast_fp16 = gather(axis = gather_7_axis_0, batch_dims = gather_7_batch_dims_0, indices = while_loop_1_loop_vars0_0_x0_1_1_1_1, x = concat_49_x0_1_to_fp16)[name = tensor<string, []>("gather_7_cast_fp16")];
                    tensor<int32, [1]> squeeze_6_axes_0 = const()[name = tensor<string, []>("squeeze_6_axes_0"), val = tensor<int32, [1]>([0])];
                    tensor<fp16, [1, 256]> squeeze_6_cast_fp16 = squeeze(axes = squeeze_6_axes_0, x = gather_6_cast_fp16)[name = tensor<string, []>("squeeze_6_cast_fp16")];
                    tensor<int32, [1]> squeeze_7_axes_0 = const()[name = tensor<string, []>("squeeze_7_axes_0"), val = tensor<int32, [1]>([0])];
                    tensor<fp16, [1, 256]> squeeze_7_cast_fp16 = squeeze(axes = squeeze_7_axes_0, x = gather_7_cast_fp16)[name = tensor<string, []>("squeeze_7_cast_fp16")];
                    tensor<fp16, [256, 256]> linear_19_weight_0_to_fp16 = const()[name = tensor<string, []>("linear_19_weight_0_to_fp16"), val = tensor<fp16, [256, 256]>(BLOBFILE(path = tensor<string, []>("@model_path/weights/weight.bin"), offset = tensor<uint64, []>(986368)))];
                    tensor<fp16, [256]> linear_19_bias_0_to_fp16 = const()[name = tensor<string, []>("linear_19_bias_0_to_fp16"), val = tensor<fp16, [256]>(BLOBFILE(path = tensor<string, []>("@model_path/weights/weight.bin"), offset = tensor<uint64, []>(1117504)))];
                    tensor<fp16, [1, 256]> linear_19_cast_fp16 = linear(bias = linear_19_bias_0_to_fp16, weight = linear_19_weight_0_to_fp16, x = squeeze_6_cast_fp16)[name = tensor<string, []>("linear_19_cast_fp16")];
                    tensor<fp16, [256, 256]> linear_20_weight_0_to_fp16 = const()[name = tensor<string, []>("linear_20_weight_0_to_fp16"), val = tensor<fp16, [256, 256]>(BLOBFILE(path = tensor<string, []>("@model_path/weights/weight.bin"), offset = tensor<uint64, []>(1118080)))];
                    tensor<fp16, [256]> linear_20_bias_0_to_fp16 = const()[name = tensor<string, []>("linear_20_bias_0_to_fp16"), val = tensor<fp16, [256]>(BLOBFILE(path = tensor<string, []>("@model_path/weights/weight.bin"), offset = tensor<uint64, []>(1249216)))];
                    tensor<fp16, [1, 256]> linear_20_cast_fp16 = linear(bias = linear_20_bias_0_to_fp16, weight = linear_20_weight_0_to_fp16, x = squeeze_7_cast_fp16)[name = tensor<string, []>("linear_20_cast_fp16")];
                    tensor<fp16, [1, 256]> add_15_cast_fp16 = add(x = linear_19_cast_fp16, y = linear_20_cast_fp16)[name = tensor<string, []>("add_15_cast_fp16")];
                    tensor<fp16, [1, 256]> sigmoid_6_cast_fp16 = sigmoid(x = add_15_cast_fp16)[name = tensor<string, []>("sigmoid_6_cast_fp16")];
                    tensor<fp16, [256, 256]> linear_21_weight_0_to_fp16 = const()[name = tensor<string, []>("linear_21_weight_0_to_fp16"), val = tensor<fp16, [256, 256]>(BLOBFILE(path = tensor<string, []>("@model_path/weights/weight.bin"), offset = tensor<uint64, []>(1249792)))];
                    tensor<fp16, [256]> linear_21_bias_0_to_fp16 = const()[name = tensor<string, []>("linear_21_bias_0_to_fp16"), val = tensor<fp16, [256]>(BLOBFILE(path = tensor<string, []>("@model_path/weights/weight.bin"), offset = tensor<uint64, []>(1380928)))];
                    tensor<fp16, [1, 256]> linear_21_cast_fp16 = linear(bias = linear_21_bias_0_to_fp16, weight = linear_21_weight_0_to_fp16, x = squeeze_6_cast_fp16)[name = tensor<string, []>("linear_21_cast_fp16")];
                    tensor<fp16, [256, 256]> linear_22_weight_0_to_fp16 = const()[name = tensor<string, []>("linear_22_weight_0_to_fp16"), val = tensor<fp16, [256, 256]>(BLOBFILE(path = tensor<string, []>("@model_path/weights/weight.bin"), offset = tensor<uint64, []>(1381504)))];
                    tensor<fp16, [256]> linear_22_bias_0_to_fp16 = const()[name = tensor<string, []>("linear_22_bias_0_to_fp16"), val = tensor<fp16, [256]>(BLOBFILE(path = tensor<string, []>("@model_path/weights/weight.bin"), offset = tensor<uint64, []>(1512640)))];
                    tensor<fp16, [1, 256]> linear_22_cast_fp16 = linear(bias = linear_22_bias_0_to_fp16, weight = linear_22_weight_0_to_fp16, x = squeeze_7_cast_fp16)[name = tensor<string, []>("linear_22_cast_fp16")];
                    tensor<fp16, [1, 256]> add_16_cast_fp16 = add(x = linear_21_cast_fp16, y = linear_22_cast_fp16)[name = tensor<string, []>("add_16_cast_fp16")];
                    tensor<fp16, [1, 256]> sigmoid_7_cast_fp16 = sigmoid(x = add_16_cast_fp16)[name = tensor<string, []>("sigmoid_7_cast_fp16")];
                    tensor<fp16, [256, 256]> linear_23_weight_0_to_fp16 = const()[name = tensor<string, []>("linear_23_weight_0_to_fp16"), val = tensor<fp16, [256, 256]>(BLOBFILE(path = tensor<string, []>("@model_path/weights/weight.bin"), offset = tensor<uint64, []>(1513216)))];
                    tensor<fp16, [256]> linear_23_bias_0_to_fp16 = const()[name = tensor<string, []>("linear_23_bias_0_to_fp16"), val = tensor<fp16, [256]>(BLOBFILE(path = tensor<string, []>("@model_path/weights/weight.bin"), offset = tensor<uint64, []>(1644352)))];
                    tensor<fp16, [1, 256]> linear_23_cast_fp16 = linear(bias = linear_23_bias_0_to_fp16, weight = linear_23_weight_0_to_fp16, x = squeeze_6_cast_fp16)[name = tensor<string, []>("linear_23_cast_fp16")];
                    tensor<fp16, [256, 256]> linear_24_weight_0_to_fp16 = const()[name = tensor<string, []>("linear_24_weight_0_to_fp16"), val = tensor<fp16, [256, 256]>(BLOBFILE(path = tensor<string, []>("@model_path/weights/weight.bin"), offset = tensor<uint64, []>(1644928)))];
                    tensor<fp16, [256]> linear_24_bias_0_to_fp16 = const()[name = tensor<string, []>("linear_24_bias_0_to_fp16"), val = tensor<fp16, [256]>(BLOBFILE(path = tensor<string, []>("@model_path/weights/weight.bin"), offset = tensor<uint64, []>(1776064)))];
                    tensor<fp16, [1, 256]> linear_24_cast_fp16 = linear(bias = linear_24_bias_0_to_fp16, weight = linear_24_weight_0_to_fp16, x = squeeze_7_cast_fp16)[name = tensor<string, []>("linear_24_cast_fp16")];
                    tensor<fp16, [1, 256]> mul_9_cast_fp16 = mul(x = sigmoid_6_cast_fp16, y = linear_24_cast_fp16)[name = tensor<string, []>("mul_9_cast_fp16")];
                    tensor<fp16, [1, 256]> add_17_cast_fp16 = add(x = linear_23_cast_fp16, y = mul_9_cast_fp16)[name = tensor<string, []>("add_17_cast_fp16")];
                    tensor<fp16, [1, 256]> tanh_3_cast_fp16 = tanh(x = add_17_cast_fp16)[name = tensor<string, []>("tanh_3_cast_fp16")];
                    tensor<fp16, []> sub_3_x_0_to_fp16 = const()[name = tensor<string, []>("sub_3_x_0_to_fp16"), val = tensor<fp16, []>(0x1p+0)];
                    tensor<fp16, [1, 256]> sub_3_cast_fp16 = sub(x = sub_3_x_0_to_fp16, y = sigmoid_7_cast_fp16)[name = tensor<string, []>("sub_3_cast_fp16")];
                    tensor<fp16, [1, 256]> mul_10_cast_fp16 = mul(x = sub_3_cast_fp16, y = tanh_3_cast_fp16)[name = tensor<string, []>("mul_10_cast_fp16")];
                    tensor<fp16, [1, 256]> mul_11_cast_fp16 = mul(x = sigmoid_7_cast_fp16, y = squeeze_7_cast_fp16)[name = tensor<string, []>("mul_11_cast_fp16")];
                    tensor<fp16, [1, 256]> add_18_cast_fp16 = add(x = mul_10_cast_fp16, y = mul_11_cast_fp16)[name = tensor<string, []>("add_18_cast_fp16")];
                    tensor<int32, []> add_19_y_0 = const()[name = tensor<string, []>("add_19_y_0"), val = tensor<int32, []>(1)];
                    tensor<int32, [1]> add_19 = add(x = while_loop_1_loop_vars0_0_x0_1_1_1_1, y = add_19_y_0)[name = tensor<string, []>("add_19")];
                    tensor<int32, [1]> expand_dims_3_axes_0 = const()[name = tensor<string, []>("expand_dims_3_axes_0"), val = tensor<int32, [1]>([0])];
                    tensor<fp16, [1, 1, 256]> expand_dims_3_cast_fp16 = expand_dims(axes = expand_dims_3_axes_0, x = add_18_cast_fp16)[name = tensor<string, []>("expand_dims_3_cast_fp16")];
                    tensor<int32, []> scatter_3_axis_0 = const()[name = tensor<string, []>("scatter_3_axis_0"), val = tensor<int32, []>(0)];
                    tensor<string, []> scatter_3_mode_0 = const()[name = tensor<string, []>("scatter_3_mode_0"), val = tensor<string, []>("add")];
                    tensor<fp16, [2, 1, 256]> scatter_3_cast_fp16 = scatter(axis = scatter_3_axis_0, data = concat_49_x0_1_to_fp16, indices = add_19, mode = scatter_3_mode_0, updates = expand_dims_3_cast_fp16)[name = tensor<string, []>("scatter_3_cast_fp16")];
                    tensor<string, []> scatter_3_cast_fp16_to_fp32_dtype_0 = const()[name = tensor<string, []>("scatter_3_cast_fp16_to_fp32_dtype_0"), val = tensor<string, []>("fp32")];
                    tensor<fp32, [2, 1, 256]> scatter_3_cast_fp16_to_fp32 = cast(dtype = scatter_3_cast_fp16_to_fp32_dtype_0, x = scatter_3_cast_fp16)[name = tensor<string, []>("cast_46")];
                } -> (add_19, scatter_3_cast_fp16_to_fp32);
            tensor<int32, [3]> x_15_layer_0_tmp_begin_0 = const()[name = tensor<string, []>("x_15_layer_0_tmp_begin_0"), val = tensor<int32, [3]>([1, 0, 0])];
            tensor<int32, [3]> x_15_layer_0_tmp_end_0 = const()[name = tensor<string, []>("x_15_layer_0_tmp_end_0"), val = tensor<int32, [3]>([0, 0, 0])];
            tensor<bool, [3]> x_15_layer_0_tmp_begin_mask_0 = const()[name = tensor<string, []>("x_15_layer_0_tmp_begin_mask_0"), val = tensor<bool, [3]>([false, true, true])];
            tensor<bool, [3]> x_15_layer_0_tmp_end_mask_0 = const()[name = tensor<string, []>("x_15_layer_0_tmp_end_mask_0"), val = tensor<bool, [3]>([true, true, true])];
            tensor<string, []> while_loop_1_1_to_fp16_dtype_0 = const()[name = tensor<string, []>("while_loop_1_1_to_fp16_dtype_0"), val = tensor<string, []>("fp16")];
            tensor<fp16, [2, 1, 256]> while_loop_1_1_to_fp16 = cast(dtype = while_loop_1_1_to_fp16_dtype_0, x = while_loop_1_1)[name = tensor<string, []>("cast_45")];
            tensor<fp16, [1, 1, 256]> x_15_layer_0_tmp_cast_fp16 = slice_by_index(begin = x_15_layer_0_tmp_begin_0, begin_mask = x_15_layer_0_tmp_begin_mask_0, end = x_15_layer_0_tmp_end_0, end_mask = x_15_layer_0_tmp_end_mask_0, x = while_loop_1_1_to_fp16)[name = tensor<string, []>("x_15_layer_0_tmp_cast_fp16")];
            tensor<int32, [3]> slice_by_index_46_begin_0 = const()[name = tensor<string, []>("slice_by_index_46_begin_0"), val = tensor<int32, [3]>([1, 0, 0])];
            tensor<int32, [3]> slice_by_index_46_end_0 = const()[name = tensor<string, []>("slice_by_index_46_end_0"), val = tensor<int32, [3]>([2, 0, 0])];
            tensor<bool, [3]> slice_by_index_46_begin_mask_0 = const()[name = tensor<string, []>("slice_by_index_46_begin_mask_0"), val = tensor<bool, [3]>([false, true, true])];
            tensor<bool, [3]> slice_by_index_46_end_mask_0 = const()[name = tensor<string, []>("slice_by_index_46_end_mask_0"), val = tensor<bool, [3]>([false, true, true])];
            tensor<fp16, [1, 1, 256]> slice_by_index_46_cast_fp16 = slice_by_index(begin = slice_by_index_46_begin_0, begin_mask = slice_by_index_46_begin_mask_0, end = slice_by_index_46_end_0, end_mask = slice_by_index_46_end_mask_0, x = var_775_cast_fp16)[name = tensor<string, []>("slice_by_index_46_cast_fp16")];
            tensor<int32, [1]> slice_by_index_47 = const()[name = tensor<string, []>("slice_by_index_47"), val = tensor<int32, [1]>([1])];
            tensor<int32, []> concat_51_axis_0 = const()[name = tensor<string, []>("concat_51_axis_0"), val = tensor<int32, []>(0)];
            tensor<bool, []> concat_51_interleave_0 = const()[name = tensor<string, []>("concat_51_interleave_0"), val = tensor<bool, []>(false)];
            tensor<fp16, [2, 1, 256]> concat_51_cast_fp16 = concat(axis = concat_51_axis_0, interleave = concat_51_interleave_0, values = (slice_by_index_46_cast_fp16, fill_0_to_fp16))[name = tensor<string, []>("concat_51_cast_fp16")];
            tensor<string, []> concat_51_cast_fp16_to_fp32_dtype_0 = const()[name = tensor<string, []>("concat_51_cast_fp16_to_fp32_dtype_0"), val = tensor<string, []>("fp32")];
            tensor<int32, [1]> while_loop_2_loop_vars0_0 = const()[name = tensor<string, []>("while_loop_2_loop_vars0_0"), val = tensor<int32, [1]>([0])];
            tensor<fp32, [2, 1, 256]> concat_51_cast_fp16_to_fp32 = cast(dtype = concat_51_cast_fp16_to_fp32_dtype_0, x = concat_51_cast_fp16)[name = tensor<string, []>("cast_44")];
            tensor<int32, [1]> while_loop_2_0, tensor<fp32, [2, 1, 256]> while_loop_2_1 = while_loop(loop_vars = (while_loop_2_loop_vars0_0, concat_51_cast_fp16_to_fp32))[name = tensor<string, []>("while_loop_2")]
                (tensor<int32, [1]> while_loop_2_loop_vars0_0_x0_1_1_1_0, tensor<fp32, [2, 1, 256]> concat_51_x0_1_1_1_0) {
                    tensor<bool, [1]> less_5 = less(x = while_loop_2_loop_vars0_0_x0_1_1_1_0, y = slice_by_index_47)[name = tensor<string, []>("less_5")];
                } -> (less_5)
                (tensor<int32, [1]> while_loop_2_loop_vars0_0_x0_1_1_1_1, tensor<fp32, [2, 1, 256]> concat_51_x0_1_1_1_1) {
                    tensor<int32, []> gather_10_axis_0 = const()[name = tensor<string, []>("gather_10_axis_0"), val = tensor<int32, []>(0)];
                    tensor<int32, []> gather_10_batch_dims_0 = const()[name = tensor<string, []>("gather_10_batch_dims_0"), val = tensor<int32, []>(0)];
                    tensor<fp16, [1, 1, 256]> gather_10_cast_fp16 = gather(axis = gather_10_axis_0, batch_dims = gather_10_batch_dims_0, indices = while_loop_2_loop_vars0_0_x0_1_1_1_1, x = x_15_layer_0_tmp_cast_fp16)[name = tensor<string, []>("gather_10_cast_fp16")];
                    tensor<int32, []> gather_11_axis_0 = const()[name = tensor<string, []>("gather_11_axis_0"), val = tensor<int32, []>(0)];
                    tensor<int32, []> gather_11_batch_dims_0 = const()[name = tensor<string, []>("gather_11_batch_dims_0"), val = tensor<int32, []>(0)];
                    tensor<string, []> concat_51_x0_1_to_fp16_dtype_0 = const()[name = tensor<string, []>("concat_51_x0_1_to_fp16_dtype_0"), val = tensor<string, []>("fp16")];
                    tensor<fp16, [2, 1, 256]> concat_51_x0_1_to_fp16 = cast(dtype = concat_51_x0_1_to_fp16_dtype_0, x = concat_51_x0_1_1_1_1)[name = tensor<string, []>("cast_43")];
                    tensor<fp16, [1, 1, 256]> gather_11_cast_fp16 = gather(axis = gather_11_axis_0, batch_dims = gather_11_batch_dims_0, indices = while_loop_2_loop_vars0_0_x0_1_1_1_1, x = concat_51_x0_1_to_fp16)[name = tensor<string, []>("gather_11_cast_fp16")];
                    tensor<int32, [1]> squeeze_10_axes_0 = const()[name = tensor<string, []>("squeeze_10_axes_0"), val = tensor<int32, [1]>([0])];
                    tensor<fp16, [1, 256]> squeeze_10_cast_fp16 = squeeze(axes = squeeze_10_axes_0, x = gather_10_cast_fp16)[name = tensor<string, []>("squeeze_10_cast_fp16")];
                    tensor<int32, [1]> squeeze_11_axes_0 = const()[name = tensor<string, []>("squeeze_11_axes_0"), val = tensor<int32, [1]>([0])];
                    tensor<fp16, [1, 256]> squeeze_11_cast_fp16 = squeeze(axes = squeeze_11_axes_0, x = gather_11_cast_fp16)[name = tensor<string, []>("squeeze_11_cast_fp16")];
                    tensor<fp16, [256, 256]> linear_31_weight_0_to_fp16 = const()[name = tensor<string, []>("linear_31_weight_0_to_fp16"), val = tensor<fp16, [256, 256]>(BLOBFILE(path = tensor<string, []>("@model_path/weights/weight.bin"), offset = tensor<uint64, []>(1776640)))];
                    tensor<fp16, [256]> linear_31_bias_0_to_fp16 = const()[name = tensor<string, []>("linear_31_bias_0_to_fp16"), val = tensor<fp16, [256]>(BLOBFILE(path = tensor<string, []>("@model_path/weights/weight.bin"), offset = tensor<uint64, []>(1907776)))];
                    tensor<fp16, [1, 256]> linear_31_cast_fp16 = linear(bias = linear_31_bias_0_to_fp16, weight = linear_31_weight_0_to_fp16, x = squeeze_10_cast_fp16)[name = tensor<string, []>("linear_31_cast_fp16")];
                    tensor<fp16, [256, 256]> linear_32_weight_0_to_fp16 = const()[name = tensor<string, []>("linear_32_weight_0_to_fp16"), val = tensor<fp16, [256, 256]>(BLOBFILE(path = tensor<string, []>("@model_path/weights/weight.bin"), offset = tensor<uint64, []>(1908352)))];
                    tensor<fp16, [256]> linear_32_bias_0_to_fp16 = const()[name = tensor<string, []>("linear_32_bias_0_to_fp16"), val = tensor<fp16, [256]>(BLOBFILE(path = tensor<string, []>("@model_path/weights/weight.bin"), offset = tensor<uint64, []>(2039488)))];
                    tensor<fp16, [1, 256]> linear_32_cast_fp16 = linear(bias = linear_32_bias_0_to_fp16, weight = linear_32_weight_0_to_fp16, x = squeeze_11_cast_fp16)[name = tensor<string, []>("linear_32_cast_fp16")];
                    tensor<fp16, [1, 256]> add_25_cast_fp16 = add(x = linear_31_cast_fp16, y = linear_32_cast_fp16)[name = tensor<string, []>("add_25_cast_fp16")];
                    tensor<fp16, [1, 256]> sigmoid_10_cast_fp16 = sigmoid(x = add_25_cast_fp16)[name = tensor<string, []>("sigmoid_10_cast_fp16")];
                    tensor<fp16, [256, 256]> linear_33_weight_0_to_fp16 = const()[name = tensor<string, []>("linear_33_weight_0_to_fp16"), val = tensor<fp16, [256, 256]>(BLOBFILE(path = tensor<string, []>("@model_path/weights/weight.bin"), offset = tensor<uint64, []>(2040064)))];
                    tensor<fp16, [256]> linear_33_bias_0_to_fp16 = const()[name = tensor<string, []>("linear_33_bias_0_to_fp16"), val = tensor<fp16, [256]>(BLOBFILE(path = tensor<string, []>("@model_path/weights/weight.bin"), offset = tensor<uint64, []>(2171200)))];
                    tensor<fp16, [1, 256]> linear_33_cast_fp16 = linear(bias = linear_33_bias_0_to_fp16, weight = linear_33_weight_0_to_fp16, x = squeeze_10_cast_fp16)[name = tensor<string, []>("linear_33_cast_fp16")];
                    tensor<fp16, [256, 256]> linear_34_weight_0_to_fp16 = const()[name = tensor<string, []>("linear_34_weight_0_to_fp16"), val = tensor<fp16, [256, 256]>(BLOBFILE(path = tensor<string, []>("@model_path/weights/weight.bin"), offset = tensor<uint64, []>(2171776)))];
                    tensor<fp16, [256]> linear_34_bias_0_to_fp16 = const()[name = tensor<string, []>("linear_34_bias_0_to_fp16"), val = tensor<fp16, [256]>(BLOBFILE(path = tensor<string, []>("@model_path/weights/weight.bin"), offset = tensor<uint64, []>(2302912)))];
                    tensor<fp16, [1, 256]> linear_34_cast_fp16 = linear(bias = linear_34_bias_0_to_fp16, weight = linear_34_weight_0_to_fp16, x = squeeze_11_cast_fp16)[name = tensor<string, []>("linear_34_cast_fp16")];
                    tensor<fp16, [1, 256]> add_26_cast_fp16 = add(x = linear_33_cast_fp16, y = linear_34_cast_fp16)[name = tensor<string, []>("add_26_cast_fp16")];
                    tensor<fp16, [1, 256]> sigmoid_11_cast_fp16 = sigmoid(x = add_26_cast_fp16)[name = tensor<string, []>("sigmoid_11_cast_fp16")];
                    tensor<fp16, [256, 256]> linear_35_weight_0_to_fp16 = const()[name = tensor<string, []>("linear_35_weight_0_to_fp16"), val = tensor<fp16, [256, 256]>(BLOBFILE(path = tensor<string, []>("@model_path/weights/weight.bin"), offset = tensor<uint64, []>(2303488)))];
                    tensor<fp16, [256]> linear_35_bias_0_to_fp16 = const()[name = tensor<string, []>("linear_35_bias_0_to_fp16"), val = tensor<fp16, [256]>(BLOBFILE(path = tensor<string, []>("@model_path/weights/weight.bin"), offset = tensor<uint64, []>(2434624)))];
                    tensor<fp16, [1, 256]> linear_35_cast_fp16 = linear(bias = linear_35_bias_0_to_fp16, weight = linear_35_weight_0_to_fp16, x = squeeze_10_cast_fp16)[name = tensor<string, []>("linear_35_cast_fp16")];
                    tensor<fp16, [256, 256]> linear_36_weight_0_to_fp16 = const()[name = tensor<string, []>("linear_36_weight_0_to_fp16"), val = tensor<fp16, [256, 256]>(BLOBFILE(path = tensor<string, []>("@model_path/weights/weight.bin"), offset = tensor<uint64, []>(2435200)))];
                    tensor<fp16, [256]> linear_36_bias_0_to_fp16 = const()[name = tensor<string, []>("linear_36_bias_0_to_fp16"), val = tensor<fp16, [256]>(BLOBFILE(path = tensor<string, []>("@model_path/weights/weight.bin"), offset = tensor<uint64, []>(2566336)))];
                    tensor<fp16, [1, 256]> linear_36_cast_fp16 = linear(bias = linear_36_bias_0_to_fp16, weight = linear_36_weight_0_to_fp16, x = squeeze_11_cast_fp16)[name = tensor<string, []>("linear_36_cast_fp16")];
                    tensor<fp16, [1, 256]> mul_15_cast_fp16 = mul(x = sigmoid_10_cast_fp16, y = linear_36_cast_fp16)[name = tensor<string, []>("mul_15_cast_fp16")];
                    tensor<fp16, [1, 256]> add_27_cast_fp16 = add(x = linear_35_cast_fp16, y = mul_15_cast_fp16)[name = tensor<string, []>("add_27_cast_fp16")];
                    tensor<fp16, [1, 256]> tanh_5_cast_fp16 = tanh(x = add_27_cast_fp16)[name = tensor<string, []>("tanh_5_cast_fp16")];
                    tensor<fp16, []> sub_5_x_0_to_fp16 = const()[name = tensor<string, []>("sub_5_x_0_to_fp16"), val = tensor<fp16, []>(0x1p+0)];
                    tensor<fp16, [1, 256]> sub_5_cast_fp16 = sub(x = sub_5_x_0_to_fp16, y = sigmoid_11_cast_fp16)[name = tensor<string, []>("sub_5_cast_fp16")];
                    tensor<fp16, [1, 256]> mul_16_cast_fp16 = mul(x = sub_5_cast_fp16, y = tanh_5_cast_fp16)[name = tensor<string, []>("mul_16_cast_fp16")];
                    tensor<fp16, [1, 256]> mul_17_cast_fp16 = mul(x = sigmoid_11_cast_fp16, y = squeeze_11_cast_fp16)[name = tensor<string, []>("mul_17_cast_fp16")];
                    tensor<fp16, [1, 256]> add_28_cast_fp16 = add(x = mul_16_cast_fp16, y = mul_17_cast_fp16)[name = tensor<string, []>("add_28_cast_fp16")];
                    tensor<int32, []> add_29_y_0 = const()[name = tensor<string, []>("add_29_y_0"), val = tensor<int32, []>(1)];
                    tensor<int32, [1]> add_29 = add(x = while_loop_2_loop_vars0_0_x0_1_1_1_1, y = add_29_y_0)[name = tensor<string, []>("add_29")];
                    tensor<int32, [1]> expand_dims_5_axes_0 = const()[name = tensor<string, []>("expand_dims_5_axes_0"), val = tensor<int32, [1]>([0])];
                    tensor<fp16, [1, 1, 256]> expand_dims_5_cast_fp16 = expand_dims(axes = expand_dims_5_axes_0, x = add_28_cast_fp16)[name = tensor<string, []>("expand_dims_5_cast_fp16")];
                    tensor<int32, []> scatter_5_axis_0 = const()[name = tensor<string, []>("scatter_5_axis_0"), val = tensor<int32, []>(0)];
                    tensor<string, []> scatter_5_mode_0 = const()[name = tensor<string, []>("scatter_5_mode_0"), val = tensor<string, []>("add")];
                    tensor<fp16, [2, 1, 256]> scatter_5_cast_fp16 = scatter(axis = scatter_5_axis_0, data = concat_51_x0_1_to_fp16, indices = add_29, mode = scatter_5_mode_0, updates = expand_dims_5_cast_fp16)[name = tensor<string, []>("scatter_5_cast_fp16")];
                    tensor<string, []> scatter_5_cast_fp16_to_fp32_dtype_0 = const()[name = tensor<string, []>("scatter_5_cast_fp16_to_fp32_dtype_0"), val = tensor<string, []>("fp32")];
                    tensor<fp32, [2, 1, 256]> scatter_5_cast_fp16_to_fp32 = cast(dtype = scatter_5_cast_fp16_to_fp32_dtype_0, x = scatter_5_cast_fp16)[name = tensor<string, []>("cast_42")];
                } -> (add_29, scatter_5_cast_fp16_to_fp32);
            tensor<int32, [3]> x_15_tmp_begin_0 = const()[name = tensor<string, []>("x_15_tmp_begin_0"), val = tensor<int32, [3]>([1, 0, 0])];
            tensor<int32, [3]> x_15_tmp_end_0 = const()[name = tensor<string, []>("x_15_tmp_end_0"), val = tensor<int32, [3]>([0, 0, 0])];
            tensor<bool, [3]> x_15_tmp_begin_mask_0 = const()[name = tensor<string, []>("x_15_tmp_begin_mask_0"), val = tensor<bool, [3]>([false, true, true])];
            tensor<bool, [3]> x_15_tmp_end_mask_0 = const()[name = tensor<string, []>("x_15_tmp_end_mask_0"), val = tensor<bool, [3]>([true, true, true])];
            tensor<string, []> while_loop_2_1_to_fp16_dtype_0 = const()[name = tensor<string, []>("while_loop_2_1_to_fp16_dtype_0"), val = tensor<string, []>("fp16")];
            tensor<fp16, [2, 1, 256]> while_loop_2_1_to_fp16 = cast(dtype = while_loop_2_1_to_fp16_dtype_0, x = while_loop_2_1)[name = tensor<string, []>("cast_41")];
            tensor<fp16, [1, 1, 256]> x_15_tmp_cast_fp16 = slice_by_index(begin = x_15_tmp_begin_0, begin_mask = x_15_tmp_begin_mask_0, end = x_15_tmp_end_0, end_mask = x_15_tmp_end_mask_0, x = while_loop_2_1_to_fp16)[name = tensor<string, []>("x_15_tmp_cast_fp16")];
            tensor<int32, [3]> x_15_perm_0 = const()[name = tensor<string, []>("x_15_perm_0"), val = tensor<int32, [3]>([1, 0, 2])];
            tensor<int32, []> h_emb_out_axis_0 = const()[name = tensor<string, []>("h_emb_out_axis_0"), val = tensor<int32, []>(0)];
            tensor<bool, []> h_emb_out_interleave_0 = const()[name = tensor<string, []>("h_emb_out_interleave_0"), val = tensor<bool, []>(false)];
            tensor<fp16, [2, 1, 256]> h_emb_out_cast_fp16 = concat(axis = h_emb_out_axis_0, interleave = h_emb_out_interleave_0, values = (x_15_layer_0_tmp_cast_fp16, x_15_tmp_cast_fp16))[name = tensor<string, []>("h_emb_out_cast_fp16")];
            tensor<int32, [4]> var_793 = const()[name = tensor<string, []>("op_793"), val = tensor<int32, [4]>([1, 1, 16, 16])];
            tensor<fp16, [1, 1, 256]> x_15_cast_fp16 = transpose(perm = x_15_perm_0, x = x_15_tmp_cast_fp16)[name = tensor<string, []>("transpose_34")];
            tensor<fp16, [1, 1, 16, 16]> var_794_cast_fp16 = reshape(shape = var_793, x = x_15_cast_fp16)[name = tensor<string, []>("op_794_cast_fp16")];
            tensor<int32, [4]> transpose_10_perm_0 = const()[name = tensor<string, []>("transpose_10_perm_0"), val = tensor<int32, [4]>([2, 0, 1, 3])];
            tensor<int32, [3]> concat_56 = const()[name = tensor<string, []>("concat_56"), val = tensor<int32, [3]>([16, 1, 16])];
            tensor<fp16, [16, 1, 1, 16]> transpose_10_cast_fp16 = transpose(perm = transpose_10_perm_0, x = var_794_cast_fp16)[name = tensor<string, []>("transpose_33")];
            tensor<fp16, [16, 1, 16]> reshape_12_cast_fp16 = reshape(shape = concat_56, x = transpose_10_cast_fp16)[name = tensor<string, []>("reshape_12_cast_fp16")];
            tensor<bool, []> matmul_4_transpose_x_0 = const()[name = tensor<string, []>("matmul_4_transpose_x_0"), val = tensor<bool, []>(false)];
            tensor<bool, []> matmul_4_transpose_y_0 = const()[name = tensor<string, []>("matmul_4_transpose_y_0"), val = tensor<bool, []>(false)];
            tensor<fp16, [16, 16, 32]> original_erb_dec_emb_gru_linear_out_0_weight_to_fp16 = const()[name = tensor<string, []>("original_erb_dec_emb_gru_linear_out_0_weight_to_fp16"), val = tensor<fp16, [16, 16, 32]>(BLOBFILE(path = tensor<string, []>("@model_path/weights/weight.bin"), offset = tensor<uint64, []>(2566912)))];
            tensor<fp16, [16, 1, 32]> matmul_4_cast_fp16 = matmul(transpose_x = matmul_4_transpose_x_0, transpose_y = matmul_4_transpose_y_0, x = reshape_12_cast_fp16, y = original_erb_dec_emb_gru_linear_out_0_weight_to_fp16)[name = tensor<string, []>("matmul_4_cast_fp16")];
            tensor<int32, [4]> concat_61 = const()[name = tensor<string, []>("concat_61"), val = tensor<int32, [4]>([16, 1, 1, 32])];
            tensor<fp16, [16, 1, 1, 32]> reshape_14_cast_fp16 = reshape(shape = concat_61, x = matmul_4_cast_fp16)[name = tensor<string, []>("reshape_14_cast_fp16")];
            tensor<int32, [4]> x_17_perm_0 = const()[name = tensor<string, []>("x_17_perm_0"), val = tensor<int32, [4]>([1, 2, 0, 3])];
            tensor<int32, [3]> concat_62 = const()[name = tensor<string, []>("concat_62"), val = tensor<int32, [3]>([1, 1, 512])];
            tensor<fp16, [1, 1, 16, 32]> x_17_cast_fp16 = transpose(perm = x_17_perm_0, x = reshape_14_cast_fp16)[name = tensor<string, []>("transpose_32")];
            tensor<fp16, [1, 1, 512]> input_65_cast_fp16 = reshape(shape = concat_62, x = x_17_cast_fp16)[name = tensor<string, []>("input_65_cast_fp16")];
            tensor<fp16, [1, 1, 512]> emb_dec_cast_fp16 = relu(x = input_65_cast_fp16)[name = tensor<string, []>("emb_dec_cast_fp16")];
            tensor<int32, [3]> var_802 = const()[name = tensor<string, []>("op_802"), val = tensor<int32, [3]>([1, 0, 2])];
            tensor<int32, [4]> var_807 = const()[name = tensor<string, []>("op_807"), val = tensor<int32, [4]>([1, 1, 8, -1])];
            tensor<fp16, [1, 1, 8, 64]> var_808_cast_fp16 = reshape(shape = var_807, x = emb_dec_cast_fp16)[name = tensor<string, []>("op_808_cast_fp16")];
            tensor<int32, [4]> var_809 = const()[name = tensor<string, []>("op_809"), val = tensor<int32, [4]>([0, 3, 1, 2])];
            tensor<string, []> input_67_pad_type_0 = const()[name = tensor<string, []>("input_67_pad_type_0"), val = tensor<string, []>("valid")];
            tensor<int32, []> input_67_groups_0 = const()[name = tensor<string, []>("input_67_groups_0"), val = tensor<int32, []>(64)];
            tensor<int32, [2]> input_67_strides_0 = const()[name = tensor<string, []>("input_67_strides_0"), val = tensor<int32, [2]>([1, 1])];
            tensor<int32, [4]> input_67_pad_0 = const()[name = tensor<string, []>("input_67_pad_0"), val = tensor<int32, [4]>([0, 0, 0, 0])];
            tensor<int32, [2]> input_67_dilations_0 = const()[name = tensor<string, []>("input_67_dilations_0"), val = tensor<int32, [2]>([1, 1])];
            tensor<fp16, [64, 1, 1, 1]> const_39_to_fp16 = const()[name = tensor<string, []>("const_39_to_fp16"), val = tensor<fp16, [64, 1, 1, 1]>(BLOBFILE(path = tensor<string, []>("@model_path/weights/weight.bin"), offset = tensor<uint64, []>(2583360)))];
            tensor<fp16, [64]> const_40_to_fp16 = const()[name = tensor<string, []>("const_40_to_fp16"), val = tensor<fp16, [64]>(BLOBFILE(path = tensor<string, []>("@model_path/weights/weight.bin"), offset = tensor<uint64, []>(2583552)))];
            tensor<fp16, [1, 64, 1, 8]> input_69_cast_fp16 = conv(bias = const_40_to_fp16, dilations = input_67_dilations_0, groups = input_67_groups_0, pad = input_67_pad_0, pad_type = input_67_pad_type_0, strides = input_67_strides_0, weight = const_39_to_fp16, x = var_748_cast_fp16)[name = tensor<string, []>("input_69_cast_fp16")];
            tensor<fp16, [1, 64, 1, 8]> var_817_cast_fp16 = relu(x = input_69_cast_fp16)[name = tensor<string, []>("op_817_cast_fp16")];
            tensor<fp16, [1, 64, 1, 8]> emb_reshaped_cast_fp16 = transpose(perm = var_809, x = var_808_cast_fp16)[name = tensor<string, []>("transpose_30")];
            tensor<fp16, [1, 64, 1, 8]> input_71_cast_fp16 = add(x = var_817_cast_fp16, y = emb_reshaped_cast_fp16)[name = tensor<string, []>("input_71_cast_fp16")];
            tensor<string, []> input_73_pad_type_0 = const()[name = tensor<string, []>("input_73_pad_type_0"), val = tensor<string, []>("custom")];
            tensor<int32, [4]> input_73_pad_0 = const()[name = tensor<string, []>("input_73_pad_0"), val = tensor<int32, [4]>([0, 0, 1, 1])];
            tensor<int32, []> input_73_groups_0 = const()[name = tensor<string, []>("input_73_groups_0"), val = tensor<int32, []>(64)];
            tensor<int32, [2]> input_73_strides_0 = const()[name = tensor<string, []>("input_73_strides_0"), val = tensor<int32, [2]>([1, 1])];
            tensor<int32, [2]> input_73_dilations_0 = const()[name = tensor<string, []>("input_73_dilations_0"), val = tensor<int32, [2]>([1, 1])];
            tensor<fp16, [64, 1, 1, 3]> original_erb_dec_convt3_0_weight_to_fp16 = const()[name = tensor<string, []>("original_erb_dec_convt3_0_weight_to_fp16"), val = tensor<fp16, [64, 1, 1, 3]>(BLOBFILE(path = tensor<string, []>("@model_path/weights/weight.bin"), offset = tensor<uint64, []>(2583744)))];
            tensor<fp16, [1, 64, 1, 8]> input_73_cast_fp16 = conv(dilations = input_73_dilations_0, groups = input_73_groups_0, pad = input_73_pad_0, pad_type = input_73_pad_type_0, strides = input_73_strides_0, weight = original_erb_dec_convt3_0_weight_to_fp16, x = input_71_cast_fp16)[name = tensor<string, []>("input_73_cast_fp16")];
            tensor<string, []> input_75_pad_type_0 = const()[name = tensor<string, []>("input_75_pad_type_0"), val = tensor<string, []>("valid")];
            tensor<int32, [2]> input_75_strides_0 = const()[name = tensor<string, []>("input_75_strides_0"), val = tensor<int32, [2]>([1, 1])];
            tensor<int32, [4]> input_75_pad_0 = const()[name = tensor<string, []>("input_75_pad_0"), val = tensor<int32, [4]>([0, 0, 0, 0])];
            tensor<int32, [2]> input_75_dilations_0 = const()[name = tensor<string, []>("input_75_dilations_0"), val = tensor<int32, [2]>([1, 1])];
            tensor<int32, []> input_75_groups_0 = const()[name = tensor<string, []>("input_75_groups_0"), val = tensor<int32, []>(1)];
            tensor<fp16, [64, 64, 1, 1]> const_41_to_fp16 = const()[name = tensor<string, []>("const_41_to_fp16"), val = tensor<fp16, [64, 64, 1, 1]>(BLOBFILE(path = tensor<string, []>("@model_path/weights/weight.bin"), offset = tensor<uint64, []>(2584192)))];
            tensor<fp16, [64]> const_42_to_fp16 = const()[name = tensor<string, []>("const_42_to_fp16"), val = tensor<fp16, [64]>(BLOBFILE(path = tensor<string, []>("@model_path/weights/weight.bin"), offset = tensor<uint64, []>(2592448)))];
            tensor<fp16, [1, 64, 1, 8]> input_77_cast_fp16 = conv(bias = const_42_to_fp16, dilations = input_75_dilations_0, groups = input_75_groups_0, pad = input_75_pad_0, pad_type = input_75_pad_type_0, strides = input_75_strides_0, weight = const_41_to_fp16, x = input_73_cast_fp16)[name = tensor<string, []>("input_77_cast_fp16")];
            tensor<fp16, [1, 64, 1, 8]> e3_out_cast_fp16 = relu(x = input_77_cast_fp16)[name = tensor<string, []>("e3_out_cast_fp16")];
            tensor<string, []> input_81_pad_type_0 = const()[name = tensor<string, []>("input_81_pad_type_0"), val = tensor<string, []>("valid")];
            tensor<int32, []> input_81_groups_0 = const()[name = tensor<string, []>("input_81_groups_0"), val = tensor<int32, []>(64)];
            tensor<int32, [2]> input_81_strides_0 = const()[name = tensor<string, []>("input_81_strides_0"), val = tensor<int32, [2]>([1, 1])];
            tensor<int32, [4]> input_81_pad_0 = const()[name = tensor<string, []>("input_81_pad_0"), val = tensor<int32, [4]>([0, 0, 0, 0])];
            tensor<int32, [2]> input_81_dilations_0 = const()[name = tensor<string, []>("input_81_dilations_0"), val = tensor<int32, [2]>([1, 1])];
            tensor<fp16, [64, 1, 1, 1]> const_43_to_fp16 = const()[name = tensor<string, []>("const_43_to_fp16"), val = tensor<fp16, [64, 1, 1, 1]>(BLOBFILE(path = tensor<string, []>("@model_path/weights/weight.bin"), offset = tensor<uint64, []>(2592640)))];
            tensor<fp16, [64]> const_44_to_fp16 = const()[name = tensor<string, []>("const_44_to_fp16"), val = tensor<fp16, [64]>(BLOBFILE(path = tensor<string, []>("@model_path/weights/weight.bin"), offset = tensor<uint64, []>(2592832)))];
            tensor<fp16, [1, 64, 1, 8]> input_83_cast_fp16 = conv(bias = const_44_to_fp16, dilations = input_81_dilations_0, groups = input_81_groups_0, pad = input_81_pad_0, pad_type = input_81_pad_type_0, strides = input_81_strides_0, weight = const_43_to_fp16, x = var_744_cast_fp16)[name = tensor<string, []>("input_83_cast_fp16")];
            tensor<fp16, [1, 64, 1, 8]> var_837_cast_fp16 = relu(x = input_83_cast_fp16)[name = tensor<string, []>("op_837_cast_fp16")];
            tensor<fp16, [1, 64, 1, 8]> input_85_cast_fp16 = add(x = var_837_cast_fp16, y = e3_out_cast_fp16)[name = tensor<string, []>("input_85_cast_fp16")];
            tensor<string, []> conv_transpose_0_pad_type_0 = const()[name = tensor<string, []>("conv_transpose_0_pad_type_0"), val = tensor<string, []>("custom")];
            tensor<int32, [4]> conv_transpose_0_pad_0 = const()[name = tensor<string, []>("conv_transpose_0_pad_0"), val = tensor<int32, [4]>([0, 0, 0, 0])];
            tensor<int32, [2]> conv_transpose_0_strides_0 = const()[name = tensor<string, []>("conv_transpose_0_strides_0"), val = tensor<int32, [2]>([1, 2])];
            tensor<int32, []> conv_transpose_0_groups_0 = const()[name = tensor<string, []>("conv_transpose_0_groups_0"), val = tensor<int32, []>(64)];
            tensor<int32, [2]> conv_transpose_0_dilations_0 = const()[name = tensor<string, []>("conv_transpose_0_dilations_0"), val = tensor<int32, [2]>([1, 1])];
            tensor<int32, [4]> conv_transpose_0_has_output_shape_output_shape_0 = const()[name = tensor<string, []>("conv_transpose_0_has_output_shape_output_shape_0"), val = tensor<int32, [4]>([1, 64, 1, 17])];
            tensor<fp16, [64, 1, 1, 3]> original_erb_dec_convt2_0_weight_to_fp16 = const()[name = tensor<string, []>("original_erb_dec_convt2_0_weight_to_fp16"), val = tensor<fp16, [64, 1, 1, 3]>(BLOBFILE(path = tensor<string, []>("@model_path/weights/weight.bin"), offset = tensor<uint64, []>(2593024)))];
            tensor<fp16, [1, 64, 1, 17]> conv_transpose_0_has_output_shape_cast_fp16 = conv_transpose(dilations = conv_transpose_0_dilations_0, groups = conv_transpose_0_groups_0, output_shape = conv_transpose_0_has_output_shape_output_shape_0, pad = conv_transpose_0_pad_0, pad_type = conv_transpose_0_pad_type_0, strides = conv_transpose_0_strides_0, weight = original_erb_dec_convt2_0_weight_to_fp16, x = input_85_cast_fp16)[name = tensor<string, []>("conv_transpose_0_has_output_shape_cast_fp16")];
            tensor<int32, [2]> input_87_crop_height_0 = const()[name = tensor<string, []>("input_87_crop_height_0"), val = tensor<int32, [2]>([0, 0])];
            tensor<int32, [2]> input_87_crop_width_0 = const()[name = tensor<string, []>("input_87_crop_width_0"), val = tensor<int32, [2]>([1, 0])];
            tensor<fp16, [1, 64, 1, 16]> input_87_cast_fp16 = crop(crop_height = input_87_crop_height_0, crop_width = input_87_crop_width_0, x = conv_transpose_0_has_output_shape_cast_fp16)[name = tensor<string, []>("input_87_cast_fp16")];
            tensor<string, []> input_89_pad_type_0 = const()[name = tensor<string, []>("input_89_pad_type_0"), val = tensor<string, []>("valid")];
            tensor<int32, [2]> input_89_strides_0 = const()[name = tensor<string, []>("input_89_strides_0"), val = tensor<int32, [2]>([1, 1])];
            tensor<int32, [4]> input_89_pad_0 = const()[name = tensor<string, []>("input_89_pad_0"), val = tensor<int32, [4]>([0, 0, 0, 0])];
            tensor<int32, [2]> input_89_dilations_0 = const()[name = tensor<string, []>("input_89_dilations_0"), val = tensor<int32, [2]>([1, 1])];
            tensor<int32, []> input_89_groups_0 = const()[name = tensor<string, []>("input_89_groups_0"), val = tensor<int32, []>(1)];
            tensor<fp16, [64, 64, 1, 1]> const_45_to_fp16 = const()[name = tensor<string, []>("const_45_to_fp16"), val = tensor<fp16, [64, 64, 1, 1]>(BLOBFILE(path = tensor<string, []>("@model_path/weights/weight.bin"), offset = tensor<uint64, []>(2593472)))];
            tensor<fp16, [64]> const_46_to_fp16 = const()[name = tensor<string, []>("const_46_to_fp16"), val = tensor<fp16, [64]>(BLOBFILE(path = tensor<string, []>("@model_path/weights/weight.bin"), offset = tensor<uint64, []>(2601728)))];
            tensor<fp16, [1, 64, 1, 16]> input_91_cast_fp16 = conv(bias = const_46_to_fp16, dilations = input_89_dilations_0, groups = input_89_groups_0, pad = input_89_pad_0, pad_type = input_89_pad_type_0, strides = input_89_strides_0, weight = const_45_to_fp16, x = input_87_cast_fp16)[name = tensor<string, []>("input_91_cast_fp16")];
            tensor<fp16, [1, 64, 1, 16]> e2_out_cast_fp16 = relu(x = input_91_cast_fp16)[name = tensor<string, []>("e2_out_cast_fp16")];
            tensor<string, []> input_95_pad_type_0 = const()[name = tensor<string, []>("input_95_pad_type_0"), val = tensor<string, []>("valid")];
            tensor<int32, []> input_95_groups_0 = const()[name = tensor<string, []>("input_95_groups_0"), val = tensor<int32, []>(64)];
            tensor<int32, [2]> input_95_strides_0 = const()[name = tensor<string, []>("input_95_strides_0"), val = tensor<int32, [2]>([1, 1])];
            tensor<int32, [4]> input_95_pad_0 = const()[name = tensor<string, []>("input_95_pad_0"), val = tensor<int32, [4]>([0, 0, 0, 0])];
            tensor<int32, [2]> input_95_dilations_0 = const()[name = tensor<string, []>("input_95_dilations_0"), val = tensor<int32, [2]>([1, 1])];
            tensor<fp16, [64, 1, 1, 1]> const_47_to_fp16 = const()[name = tensor<string, []>("const_47_to_fp16"), val = tensor<fp16, [64, 1, 1, 1]>(BLOBFILE(path = tensor<string, []>("@model_path/weights/weight.bin"), offset = tensor<uint64, []>(2601920)))];
            tensor<fp16, [64]> const_48_to_fp16 = const()[name = tensor<string, []>("const_48_to_fp16"), val = tensor<fp16, [64]>(BLOBFILE(path = tensor<string, []>("@model_path/weights/weight.bin"), offset = tensor<uint64, []>(2602112)))];
            tensor<fp16, [1, 64, 1, 16]> input_97_cast_fp16 = conv(bias = const_48_to_fp16, dilations = input_95_dilations_0, groups = input_95_groups_0, pad = input_95_pad_0, pad_type = input_95_pad_type_0, strides = input_95_strides_0, weight = const_47_to_fp16, x = var_740_cast_fp16)[name = tensor<string, []>("input_97_cast_fp16")];
            tensor<fp16, [1, 64, 1, 16]> var_857_cast_fp16 = relu(x = input_97_cast_fp16)[name = tensor<string, []>("op_857_cast_fp16")];
            tensor<fp16, [1, 64, 1, 16]> input_99_cast_fp16 = add(x = var_857_cast_fp16, y = e2_out_cast_fp16)[name = tensor<string, []>("input_99_cast_fp16")];
            tensor<string, []> conv_transpose_1_pad_type_0 = const()[name = tensor<string, []>("conv_transpose_1_pad_type_0"), val = tensor<string, []>("custom")];
            tensor<int32, [4]> conv_transpose_1_pad_0 = const()[name = tensor<string, []>("conv_transpose_1_pad_0"), val = tensor<int32, [4]>([0, 0, 0, 0])];
            tensor<int32, [2]> conv_transpose_1_strides_0 = const()[name = tensor<string, []>("conv_transpose_1_strides_0"), val = tensor<int32, [2]>([1, 2])];
            tensor<int32, []> conv_transpose_1_groups_0 = const()[name = tensor<string, []>("conv_transpose_1_groups_0"), val = tensor<int32, []>(64)];
            tensor<int32, [2]> conv_transpose_1_dilations_0 = const()[name = tensor<string, []>("conv_transpose_1_dilations_0"), val = tensor<int32, [2]>([1, 1])];
            tensor<int32, [4]> conv_transpose_1_has_output_shape_output_shape_0 = const()[name = tensor<string, []>("conv_transpose_1_has_output_shape_output_shape_0"), val = tensor<int32, [4]>([1, 64, 1, 33])];
            tensor<fp16, [64, 1, 1, 3]> original_erb_dec_convt1_0_weight_to_fp16 = const()[name = tensor<string, []>("original_erb_dec_convt1_0_weight_to_fp16"), val = tensor<fp16, [64, 1, 1, 3]>(BLOBFILE(path = tensor<string, []>("@model_path/weights/weight.bin"), offset = tensor<uint64, []>(2602304)))];
            tensor<fp16, [1, 64, 1, 33]> conv_transpose_1_has_output_shape_cast_fp16 = conv_transpose(dilations = conv_transpose_1_dilations_0, groups = conv_transpose_1_groups_0, output_shape = conv_transpose_1_has_output_shape_output_shape_0, pad = conv_transpose_1_pad_0, pad_type = conv_transpose_1_pad_type_0, strides = conv_transpose_1_strides_0, weight = original_erb_dec_convt1_0_weight_to_fp16, x = input_99_cast_fp16)[name = tensor<string, []>("conv_transpose_1_has_output_shape_cast_fp16")];
            tensor<int32, [2]> input_101_crop_height_0 = const()[name = tensor<string, []>("input_101_crop_height_0"), val = tensor<int32, [2]>([0, 0])];
            tensor<int32, [2]> input_101_crop_width_0 = const()[name = tensor<string, []>("input_101_crop_width_0"), val = tensor<int32, [2]>([1, 0])];
            tensor<fp16, [1, 64, 1, 32]> input_101_cast_fp16 = crop(crop_height = input_101_crop_height_0, crop_width = input_101_crop_width_0, x = conv_transpose_1_has_output_shape_cast_fp16)[name = tensor<string, []>("input_101_cast_fp16")];
            tensor<string, []> input_103_pad_type_0 = const()[name = tensor<string, []>("input_103_pad_type_0"), val = tensor<string, []>("valid")];
            tensor<int32, [2]> input_103_strides_0 = const()[name = tensor<string, []>("input_103_strides_0"), val = tensor<int32, [2]>([1, 1])];
            tensor<int32, [4]> input_103_pad_0 = const()[name = tensor<string, []>("input_103_pad_0"), val = tensor<int32, [4]>([0, 0, 0, 0])];
            tensor<int32, [2]> input_103_dilations_0 = const()[name = tensor<string, []>("input_103_dilations_0"), val = tensor<int32, [2]>([1, 1])];
            tensor<int32, []> input_103_groups_0 = const()[name = tensor<string, []>("input_103_groups_0"), val = tensor<int32, []>(1)];
            tensor<fp16, [64, 64, 1, 1]> const_49_to_fp16 = const()[name = tensor<string, []>("const_49_to_fp16"), val = tensor<fp16, [64, 64, 1, 1]>(BLOBFILE(path = tensor<string, []>("@model_path/weights/weight.bin"), offset = tensor<uint64, []>(2602752)))];
            tensor<fp16, [64]> const_50_to_fp16 = const()[name = tensor<string, []>("const_50_to_fp16"), val = tensor<fp16, [64]>(BLOBFILE(path = tensor<string, []>("@model_path/weights/weight.bin"), offset = tensor<uint64, []>(2611008)))];
            tensor<fp16, [1, 64, 1, 32]> input_105_cast_fp16 = conv(bias = const_50_to_fp16, dilations = input_103_dilations_0, groups = input_103_groups_0, pad = input_103_pad_0, pad_type = input_103_pad_type_0, strides = input_103_strides_0, weight = const_49_to_fp16, x = input_101_cast_fp16)[name = tensor<string, []>("input_105_cast_fp16")];
            tensor<fp16, [1, 64, 1, 32]> e1_out_cast_fp16 = relu(x = input_105_cast_fp16)[name = tensor<string, []>("e1_out_cast_fp16")];
            tensor<string, []> input_109_pad_type_0 = const()[name = tensor<string, []>("input_109_pad_type_0"), val = tensor<string, []>("valid")];
            tensor<int32, []> input_109_groups_0 = const()[name = tensor<string, []>("input_109_groups_0"), val = tensor<int32, []>(64)];
            tensor<int32, [2]> input_109_strides_0 = const()[name = tensor<string, []>("input_109_strides_0"), val = tensor<int32, [2]>([1, 1])];
            tensor<int32, [4]> input_109_pad_0 = const()[name = tensor<string, []>("input_109_pad_0"), val = tensor<int32, [4]>([0, 0, 0, 0])];
            tensor<int32, [2]> input_109_dilations_0 = const()[name = tensor<string, []>("input_109_dilations_0"), val = tensor<int32, [2]>([1, 1])];
            tensor<fp16, [64, 1, 1, 1]> const_51_to_fp16 = const()[name = tensor<string, []>("const_51_to_fp16"), val = tensor<fp16, [64, 1, 1, 1]>(BLOBFILE(path = tensor<string, []>("@model_path/weights/weight.bin"), offset = tensor<uint64, []>(2611200)))];
            tensor<fp16, [64]> const_52_to_fp16 = const()[name = tensor<string, []>("const_52_to_fp16"), val = tensor<fp16, [64]>(BLOBFILE(path = tensor<string, []>("@model_path/weights/weight.bin"), offset = tensor<uint64, []>(2611392)))];
            tensor<fp16, [1, 64, 1, 32]> input_111_cast_fp16 = conv(bias = const_52_to_fp16, dilations = input_109_dilations_0, groups = input_109_groups_0, pad = input_109_pad_0, pad_type = input_109_pad_type_0, strides = input_109_strides_0, weight = const_51_to_fp16, x = var_736_cast_fp16)[name = tensor<string, []>("input_111_cast_fp16")];
            tensor<fp16, [1, 64, 1, 32]> var_877_cast_fp16 = relu(x = input_111_cast_fp16)[name = tensor<string, []>("op_877_cast_fp16")];
            tensor<fp16, [1, 64, 1, 32]> input_113_cast_fp16 = add(x = var_877_cast_fp16, y = e1_out_cast_fp16)[name = tensor<string, []>("input_113_cast_fp16")];
            tensor<string, []> input_115_pad_type_0 = const()[name = tensor<string, []>("input_115_pad_type_0"), val = tensor<string, []>("custom")];
            tensor<int32, [4]> input_115_pad_0 = const()[name = tensor<string, []>("input_115_pad_0"), val = tensor<int32, [4]>([0, 0, 1, 1])];
            tensor<int32, [2]> input_115_strides_0 = const()[name = tensor<string, []>("input_115_strides_0"), val = tensor<int32, [2]>([1, 1])];
            tensor<int32, [2]> input_115_dilations_0 = const()[name = tensor<string, []>("input_115_dilations_0"), val = tensor<int32, [2]>([1, 1])];
            tensor<int32, []> input_115_groups_0 = const()[name = tensor<string, []>("input_115_groups_0"), val = tensor<int32, []>(1)];
            tensor<fp16, [1, 64, 1, 3]> const_53_to_fp16 = const()[name = tensor<string, []>("const_53_to_fp16"), val = tensor<fp16, [1, 64, 1, 3]>(BLOBFILE(path = tensor<string, []>("@model_path/weights/weight.bin"), offset = tensor<uint64, []>(2611584)))];
            tensor<fp16, [1]> const_54_to_fp16 = const()[name = tensor<string, []>("const_54_to_fp16"), val = tensor<fp16, [1]>([-0x1.0ecp+0])];
            tensor<fp16, [1, 1, 1, 32]> input_117_cast_fp16 = conv(bias = const_54_to_fp16, dilations = input_115_dilations_0, groups = input_115_groups_0, pad = input_115_pad_0, pad_type = input_115_pad_type_0, strides = input_115_strides_0, weight = const_53_to_fp16, x = input_113_cast_fp16)[name = tensor<string, []>("input_117_cast_fp16")];
            tensor<fp16, [1, 1, 1, 32]> mask = sigmoid(x = input_117_cast_fp16)[name = tensor<string, []>("mask_1_cast_fp16")];
            tensor<int32, [3]> var_910 = const()[name = tensor<string, []>("op_910"), val = tensor<int32, [3]>([1, 0, 2])];
            tensor<int32, [4]> var_915 = const()[name = tensor<string, []>("op_915"), val = tensor<int32, [4]>([1, 1, 8, 64])];
            tensor<fp16, [1, 1, 8, 64]> var_916_cast_fp16 = reshape(shape = var_915, x = input_57_cast_fp16)[name = tensor<string, []>("op_916_cast_fp16")];
            tensor<int32, [4]> transpose_12_perm_0 = const()[name = tensor<string, []>("transpose_12_perm_0"), val = tensor<int32, [4]>([2, 0, 1, 3])];
            tensor<int32, [3]> concat_67 = const()[name = tensor<string, []>("concat_67"), val = tensor<int32, [3]>([8, 1, 64])];
            tensor<fp16, [8, 1, 1, 64]> transpose_12_cast_fp16 = transpose(perm = transpose_12_perm_0, x = var_916_cast_fp16)[name = tensor<string, []>("transpose_28")];
            tensor<fp16, [8, 1, 64]> reshape_15_cast_fp16 = reshape(shape = concat_67, x = transpose_12_cast_fp16)[name = tensor<string, []>("reshape_15_cast_fp16")];
            tensor<bool, []> matmul_5_transpose_x_0 = const()[name = tensor<string, []>("matmul_5_transpose_x_0"), val = tensor<bool, []>(false)];
            tensor<bool, []> matmul_5_transpose_y_0 = const()[name = tensor<string, []>("matmul_5_transpose_y_0"), val = tensor<bool, []>(false)];
            tensor<fp16, [8, 64, 32]> original_df_dec_df_gru_linear_in_0_weight_to_fp16 = const()[name = tensor<string, []>("original_df_dec_df_gru_linear_in_0_weight_to_fp16"), val = tensor<fp16, [8, 64, 32]>(BLOBFILE(path = tensor<string, []>("@model_path/weights/weight.bin"), offset = tensor<uint64, []>(2612032)))];
            tensor<fp16, [8, 1, 32]> matmul_5_cast_fp16 = matmul(transpose_x = matmul_5_transpose_x_0, transpose_y = matmul_5_transpose_y_0, x = reshape_15_cast_fp16, y = original_df_dec_df_gru_linear_in_0_weight_to_fp16)[name = tensor<string, []>("matmul_5_cast_fp16")];
            tensor<int32, [4]> concat_72 = const()[name = tensor<string, []>("concat_72"), val = tensor<int32, [4]>([8, 1, 1, 32])];
            tensor<fp16, [8, 1, 1, 32]> reshape_17_cast_fp16 = reshape(shape = concat_72, x = matmul_5_cast_fp16)[name = tensor<string, []>("reshape_17_cast_fp16")];
            tensor<int32, [4]> x_19_perm_0 = const()[name = tensor<string, []>("x_19_perm_0"), val = tensor<int32, [4]>([1, 2, 0, 3])];
            tensor<int32, [3]> concat_73 = const()[name = tensor<string, []>("concat_73"), val = tensor<int32, [3]>([1, 1, 256])];
            tensor<fp16, [1, 1, 8, 32]> x_19_cast_fp16 = transpose(perm = x_19_perm_0, x = reshape_17_cast_fp16)[name = tensor<string, []>("transpose_27")];
            tensor<fp16, [1, 1, 256]> input_119_cast_fp16 = reshape(shape = concat_73, x = x_19_cast_fp16)[name = tensor<string, []>("input_119_cast_fp16")];
            tensor<fp16, [1, 1, 256]> input_121_cast_fp16 = relu(x = input_119_cast_fp16)[name = tensor<string, []>("input_121_cast_fp16")];
            tensor<int32, [3]> transpose_14_perm_0 = const()[name = tensor<string, []>("transpose_14_perm_0"), val = tensor<int32, [3]>([1, 0, 2])];
            tensor<int32, [3]> slice_by_index_67_begin_0 = const()[name = tensor<string, []>("slice_by_index_67_begin_0"), val = tensor<int32, [3]>([0, 0, 0])];
            tensor<int32, [3]> slice_by_index_67_end_0 = const()[name = tensor<string, []>("slice_by_index_67_end_0"), val = tensor<int32, [3]>([1, 0, 0])];
            tensor<bool, [3]> slice_by_index_67_begin_mask_0 = const()[name = tensor<string, []>("slice_by_index_67_begin_mask_0"), val = tensor<bool, [3]>([false, true, true])];
            tensor<bool, [3]> slice_by_index_67_end_mask_0 = const()[name = tensor<string, []>("slice_by_index_67_end_mask_0"), val = tensor<bool, [3]>([false, true, true])];
            tensor<fp16, [2, 1, 256]> var_911_cast_fp16 = transpose(perm = var_910, x = h_df_in)[name = tensor<string, []>("transpose_29")];
            tensor<fp16, [1, 1, 256]> slice_by_index_67_cast_fp16 = slice_by_index(begin = slice_by_index_67_begin_0, begin_mask = slice_by_index_67_begin_mask_0, end = slice_by_index_67_end_0, end_mask = slice_by_index_67_end_mask_0, x = var_911_cast_fp16)[name = tensor<string, []>("slice_by_index_67_cast_fp16")];
            tensor<int32, [1]> slice_by_index_68 = const()[name = tensor<string, []>("slice_by_index_68"), val = tensor<int32, [1]>([1])];
            tensor<int32, []> concat_75_axis_0 = const()[name = tensor<string, []>("concat_75_axis_0"), val = tensor<int32, []>(0)];
            tensor<bool, []> concat_75_interleave_0 = const()[name = tensor<string, []>("concat_75_interleave_0"), val = tensor<bool, []>(false)];
            tensor<fp16, [2, 1, 256]> concat_75_cast_fp16 = concat(axis = concat_75_axis_0, interleave = concat_75_interleave_0, values = (slice_by_index_67_cast_fp16, fill_0_to_fp16))[name = tensor<string, []>("concat_75_cast_fp16")];
            tensor<string, []> concat_75_cast_fp16_to_fp32_dtype_0 = const()[name = tensor<string, []>("concat_75_cast_fp16_to_fp32_dtype_0"), val = tensor<string, []>("fp32")];
            tensor<int32, [1]> while_loop_3_loop_vars0_0 = const()[name = tensor<string, []>("while_loop_3_loop_vars0_0"), val = tensor<int32, [1]>([0])];
            tensor<fp32, [2, 1, 256]> concat_75_cast_fp16_to_fp32 = cast(dtype = concat_75_cast_fp16_to_fp32_dtype_0, x = concat_75_cast_fp16)[name = tensor<string, []>("cast_40")];
            tensor<fp16, [1, 1, 256]> transpose_14_cast_fp16 = transpose(perm = transpose_14_perm_0, x = input_121_cast_fp16)[name = tensor<string, []>("transpose_26")];
            tensor<int32, [1]> while_loop_3_0, tensor<fp32, [2, 1, 256]> while_loop_3_1 = while_loop(loop_vars = (while_loop_3_loop_vars0_0, concat_75_cast_fp16_to_fp32))[name = tensor<string, []>("while_loop_3")]
                (tensor<int32, [1]> while_loop_3_loop_vars0_0_x0_1_1_1_0, tensor<fp32, [2, 1, 256]> concat_75_x0_1_1_1_0) {
                    tensor<bool, [1]> less_7 = less(x = while_loop_3_loop_vars0_0_x0_1_1_1_0, y = slice_by_index_68)[name = tensor<string, []>("less_7")];
                } -> (less_7)
                (tensor<int32, [1]> while_loop_3_loop_vars0_0_x0_1_1_1_1, tensor<fp32, [2, 1, 256]> concat_75_x0_1_1_1_1) {
                    tensor<int32, []> gather_14_axis_0 = const()[name = tensor<string, []>("gather_14_axis_0"), val = tensor<int32, []>(0)];
                    tensor<int32, []> gather_14_batch_dims_0 = const()[name = tensor<string, []>("gather_14_batch_dims_0"), val = tensor<int32, []>(0)];
                    tensor<fp16, [1, 1, 256]> gather_14_cast_fp16 = gather(axis = gather_14_axis_0, batch_dims = gather_14_batch_dims_0, indices = while_loop_3_loop_vars0_0_x0_1_1_1_1, x = transpose_14_cast_fp16)[name = tensor<string, []>("gather_14_cast_fp16")];
                    tensor<int32, []> gather_15_axis_0 = const()[name = tensor<string, []>("gather_15_axis_0"), val = tensor<int32, []>(0)];
                    tensor<int32, []> gather_15_batch_dims_0 = const()[name = tensor<string, []>("gather_15_batch_dims_0"), val = tensor<int32, []>(0)];
                    tensor<string, []> concat_75_x0_1_to_fp16_dtype_0 = const()[name = tensor<string, []>("concat_75_x0_1_to_fp16_dtype_0"), val = tensor<string, []>("fp16")];
                    tensor<fp16, [2, 1, 256]> concat_75_x0_1_to_fp16 = cast(dtype = concat_75_x0_1_to_fp16_dtype_0, x = concat_75_x0_1_1_1_1)[name = tensor<string, []>("cast_39")];
                    tensor<fp16, [1, 1, 256]> gather_15_cast_fp16 = gather(axis = gather_15_axis_0, batch_dims = gather_15_batch_dims_0, indices = while_loop_3_loop_vars0_0_x0_1_1_1_1, x = concat_75_x0_1_to_fp16)[name = tensor<string, []>("gather_15_cast_fp16")];
                    tensor<int32, [1]> squeeze_14_axes_0 = const()[name = tensor<string, []>("squeeze_14_axes_0"), val = tensor<int32, [1]>([0])];
                    tensor<fp16, [1, 256]> squeeze_14_cast_fp16 = squeeze(axes = squeeze_14_axes_0, x = gather_14_cast_fp16)[name = tensor<string, []>("squeeze_14_cast_fp16")];
                    tensor<int32, [1]> squeeze_15_axes_0 = const()[name = tensor<string, []>("squeeze_15_axes_0"), val = tensor<int32, [1]>([0])];
                    tensor<fp16, [1, 256]> squeeze_15_cast_fp16 = squeeze(axes = squeeze_15_axes_0, x = gather_15_cast_fp16)[name = tensor<string, []>("squeeze_15_cast_fp16")];
                    tensor<fp16, [256, 256]> linear_43_weight_0_to_fp16 = const()[name = tensor<string, []>("linear_43_weight_0_to_fp16"), val = tensor<fp16, [256, 256]>(BLOBFILE(path = tensor<string, []>("@model_path/weights/weight.bin"), offset = tensor<uint64, []>(2644864)))];
                    tensor<fp16, [256]> linear_43_bias_0_to_fp16 = const()[name = tensor<string, []>("linear_43_bias_0_to_fp16"), val = tensor<fp16, [256]>(BLOBFILE(path = tensor<string, []>("@model_path/weights/weight.bin"), offset = tensor<uint64, []>(2776000)))];
                    tensor<fp16, [1, 256]> linear_43_cast_fp16 = linear(bias = linear_43_bias_0_to_fp16, weight = linear_43_weight_0_to_fp16, x = squeeze_14_cast_fp16)[name = tensor<string, []>("linear_43_cast_fp16")];
                    tensor<fp16, [256, 256]> linear_44_weight_0_to_fp16 = const()[name = tensor<string, []>("linear_44_weight_0_to_fp16"), val = tensor<fp16, [256, 256]>(BLOBFILE(path = tensor<string, []>("@model_path/weights/weight.bin"), offset = tensor<uint64, []>(2776576)))];
                    tensor<fp16, [256]> linear_44_bias_0_to_fp16 = const()[name = tensor<string, []>("linear_44_bias_0_to_fp16"), val = tensor<fp16, [256]>(BLOBFILE(path = tensor<string, []>("@model_path/weights/weight.bin"), offset = tensor<uint64, []>(2907712)))];
                    tensor<fp16, [1, 256]> linear_44_cast_fp16 = linear(bias = linear_44_bias_0_to_fp16, weight = linear_44_weight_0_to_fp16, x = squeeze_15_cast_fp16)[name = tensor<string, []>("linear_44_cast_fp16")];
                    tensor<fp16, [1, 256]> add_35_cast_fp16 = add(x = linear_43_cast_fp16, y = linear_44_cast_fp16)[name = tensor<string, []>("add_35_cast_fp16")];
                    tensor<fp16, [1, 256]> sigmoid_14_cast_fp16 = sigmoid(x = add_35_cast_fp16)[name = tensor<string, []>("sigmoid_14_cast_fp16")];
                    tensor<fp16, [256, 256]> linear_45_weight_0_to_fp16 = const()[name = tensor<string, []>("linear_45_weight_0_to_fp16"), val = tensor<fp16, [256, 256]>(BLOBFILE(path = tensor<string, []>("@model_path/weights/weight.bin"), offset = tensor<uint64, []>(2908288)))];
                    tensor<fp16, [256]> linear_45_bias_0_to_fp16 = const()[name = tensor<string, []>("linear_45_bias_0_to_fp16"), val = tensor<fp16, [256]>(BLOBFILE(path = tensor<string, []>("@model_path/weights/weight.bin"), offset = tensor<uint64, []>(3039424)))];
                    tensor<fp16, [1, 256]> linear_45_cast_fp16 = linear(bias = linear_45_bias_0_to_fp16, weight = linear_45_weight_0_to_fp16, x = squeeze_14_cast_fp16)[name = tensor<string, []>("linear_45_cast_fp16")];
                    tensor<fp16, [256, 256]> linear_46_weight_0_to_fp16 = const()[name = tensor<string, []>("linear_46_weight_0_to_fp16"), val = tensor<fp16, [256, 256]>(BLOBFILE(path = tensor<string, []>("@model_path/weights/weight.bin"), offset = tensor<uint64, []>(3040000)))];
                    tensor<fp16, [256]> linear_46_bias_0_to_fp16 = const()[name = tensor<string, []>("linear_46_bias_0_to_fp16"), val = tensor<fp16, [256]>(BLOBFILE(path = tensor<string, []>("@model_path/weights/weight.bin"), offset = tensor<uint64, []>(3171136)))];
                    tensor<fp16, [1, 256]> linear_46_cast_fp16 = linear(bias = linear_46_bias_0_to_fp16, weight = linear_46_weight_0_to_fp16, x = squeeze_15_cast_fp16)[name = tensor<string, []>("linear_46_cast_fp16")];
                    tensor<fp16, [1, 256]> add_36_cast_fp16 = add(x = linear_45_cast_fp16, y = linear_46_cast_fp16)[name = tensor<string, []>("add_36_cast_fp16")];
                    tensor<fp16, [1, 256]> sigmoid_15_cast_fp16 = sigmoid(x = add_36_cast_fp16)[name = tensor<string, []>("sigmoid_15_cast_fp16")];
                    tensor<fp16, [256, 256]> linear_47_weight_0_to_fp16 = const()[name = tensor<string, []>("linear_47_weight_0_to_fp16"), val = tensor<fp16, [256, 256]>(BLOBFILE(path = tensor<string, []>("@model_path/weights/weight.bin"), offset = tensor<uint64, []>(3171712)))];
                    tensor<fp16, [256]> linear_47_bias_0_to_fp16 = const()[name = tensor<string, []>("linear_47_bias_0_to_fp16"), val = tensor<fp16, [256]>(BLOBFILE(path = tensor<string, []>("@model_path/weights/weight.bin"), offset = tensor<uint64, []>(3302848)))];
                    tensor<fp16, [1, 256]> linear_47_cast_fp16 = linear(bias = linear_47_bias_0_to_fp16, weight = linear_47_weight_0_to_fp16, x = squeeze_14_cast_fp16)[name = tensor<string, []>("linear_47_cast_fp16")];
                    tensor<fp16, [256, 256]> linear_48_weight_0_to_fp16 = const()[name = tensor<string, []>("linear_48_weight_0_to_fp16"), val = tensor<fp16, [256, 256]>(BLOBFILE(path = tensor<string, []>("@model_path/weights/weight.bin"), offset = tensor<uint64, []>(3303424)))];
                    tensor<fp16, [256]> linear_48_bias_0_to_fp16 = const()[name = tensor<string, []>("linear_48_bias_0_to_fp16"), val = tensor<fp16, [256]>(BLOBFILE(path = tensor<string, []>("@model_path/weights/weight.bin"), offset = tensor<uint64, []>(3434560)))];
                    tensor<fp16, [1, 256]> linear_48_cast_fp16 = linear(bias = linear_48_bias_0_to_fp16, weight = linear_48_weight_0_to_fp16, x = squeeze_15_cast_fp16)[name = tensor<string, []>("linear_48_cast_fp16")];
                    tensor<fp16, [1, 256]> mul_21_cast_fp16 = mul(x = sigmoid_14_cast_fp16, y = linear_48_cast_fp16)[name = tensor<string, []>("mul_21_cast_fp16")];
                    tensor<fp16, [1, 256]> add_37_cast_fp16 = add(x = linear_47_cast_fp16, y = mul_21_cast_fp16)[name = tensor<string, []>("add_37_cast_fp16")];
                    tensor<fp16, [1, 256]> tanh_7_cast_fp16 = tanh(x = add_37_cast_fp16)[name = tensor<string, []>("tanh_7_cast_fp16")];
                    tensor<fp16, []> sub_7_x_0_to_fp16 = const()[name = tensor<string, []>("sub_7_x_0_to_fp16"), val = tensor<fp16, []>(0x1p+0)];
                    tensor<fp16, [1, 256]> sub_7_cast_fp16 = sub(x = sub_7_x_0_to_fp16, y = sigmoid_15_cast_fp16)[name = tensor<string, []>("sub_7_cast_fp16")];
                    tensor<fp16, [1, 256]> mul_22_cast_fp16 = mul(x = sub_7_cast_fp16, y = tanh_7_cast_fp16)[name = tensor<string, []>("mul_22_cast_fp16")];
                    tensor<fp16, [1, 256]> mul_23_cast_fp16 = mul(x = sigmoid_15_cast_fp16, y = squeeze_15_cast_fp16)[name = tensor<string, []>("mul_23_cast_fp16")];
                    tensor<fp16, [1, 256]> add_38_cast_fp16 = add(x = mul_22_cast_fp16, y = mul_23_cast_fp16)[name = tensor<string, []>("add_38_cast_fp16")];
                    tensor<int32, []> add_39_y_0 = const()[name = tensor<string, []>("add_39_y_0"), val = tensor<int32, []>(1)];
                    tensor<int32, [1]> add_39 = add(x = while_loop_3_loop_vars0_0_x0_1_1_1_1, y = add_39_y_0)[name = tensor<string, []>("add_39")];
                    tensor<int32, [1]> expand_dims_7_axes_0 = const()[name = tensor<string, []>("expand_dims_7_axes_0"), val = tensor<int32, [1]>([0])];
                    tensor<fp16, [1, 1, 256]> expand_dims_7_cast_fp16 = expand_dims(axes = expand_dims_7_axes_0, x = add_38_cast_fp16)[name = tensor<string, []>("expand_dims_7_cast_fp16")];
                    tensor<int32, []> scatter_7_axis_0 = const()[name = tensor<string, []>("scatter_7_axis_0"), val = tensor<int32, []>(0)];
                    tensor<string, []> scatter_7_mode_0 = const()[name = tensor<string, []>("scatter_7_mode_0"), val = tensor<string, []>("add")];
                    tensor<fp16, [2, 1, 256]> scatter_7_cast_fp16 = scatter(axis = scatter_7_axis_0, data = concat_75_x0_1_to_fp16, indices = add_39, mode = scatter_7_mode_0, updates = expand_dims_7_cast_fp16)[name = tensor<string, []>("scatter_7_cast_fp16")];
                    tensor<string, []> scatter_7_cast_fp16_to_fp32_dtype_0 = const()[name = tensor<string, []>("scatter_7_cast_fp16_to_fp32_dtype_0"), val = tensor<string, []>("fp32")];
                    tensor<fp32, [2, 1, 256]> scatter_7_cast_fp16_to_fp32 = cast(dtype = scatter_7_cast_fp16_to_fp32_dtype_0, x = scatter_7_cast_fp16)[name = tensor<string, []>("cast_38")];
                } -> (add_39, scatter_7_cast_fp16_to_fp32);
            tensor<int32, [3]> c_1_layer_0_tmp_begin_0 = const()[name = tensor<string, []>("c_1_layer_0_tmp_begin_0"), val = tensor<int32, [3]>([1, 0, 0])];
            tensor<int32, [3]> c_1_layer_0_tmp_end_0 = const()[name = tensor<string, []>("c_1_layer_0_tmp_end_0"), val = tensor<int32, [3]>([0, 0, 0])];
            tensor<bool, [3]> c_1_layer_0_tmp_begin_mask_0 = const()[name = tensor<string, []>("c_1_layer_0_tmp_begin_mask_0"), val = tensor<bool, [3]>([false, true, true])];
            tensor<bool, [3]> c_1_layer_0_tmp_end_mask_0 = const()[name = tensor<string, []>("c_1_layer_0_tmp_end_mask_0"), val = tensor<bool, [3]>([true, true, true])];
            tensor<string, []> while_loop_3_1_to_fp16_dtype_0 = const()[name = tensor<string, []>("while_loop_3_1_to_fp16_dtype_0"), val = tensor<string, []>("fp16")];
            tensor<fp16, [2, 1, 256]> while_loop_3_1_to_fp16 = cast(dtype = while_loop_3_1_to_fp16_dtype_0, x = while_loop_3_1)[name = tensor<string, []>("cast_37")];
            tensor<fp16, [1, 1, 256]> c_1_layer_0_tmp_cast_fp16 = slice_by_index(begin = c_1_layer_0_tmp_begin_0, begin_mask = c_1_layer_0_tmp_begin_mask_0, end = c_1_layer_0_tmp_end_0, end_mask = c_1_layer_0_tmp_end_mask_0, x = while_loop_3_1_to_fp16)[name = tensor<string, []>("c_1_layer_0_tmp_cast_fp16")];
            tensor<int32, [3]> slice_by_index_70_begin_0 = const()[name = tensor<string, []>("slice_by_index_70_begin_0"), val = tensor<int32, [3]>([1, 0, 0])];
            tensor<int32, [3]> slice_by_index_70_end_0 = const()[name = tensor<string, []>("slice_by_index_70_end_0"), val = tensor<int32, [3]>([2, 0, 0])];
            tensor<bool, [3]> slice_by_index_70_begin_mask_0 = const()[name = tensor<string, []>("slice_by_index_70_begin_mask_0"), val = tensor<bool, [3]>([false, true, true])];
            tensor<bool, [3]> slice_by_index_70_end_mask_0 = const()[name = tensor<string, []>("slice_by_index_70_end_mask_0"), val = tensor<bool, [3]>([false, true, true])];
            tensor<fp16, [1, 1, 256]> slice_by_index_70_cast_fp16 = slice_by_index(begin = slice_by_index_70_begin_0, begin_mask = slice_by_index_70_begin_mask_0, end = slice_by_index_70_end_0, end_mask = slice_by_index_70_end_mask_0, x = var_911_cast_fp16)[name = tensor<string, []>("slice_by_index_70_cast_fp16")];
            tensor<int32, [1]> slice_by_index_71 = const()[name = tensor<string, []>("slice_by_index_71"), val = tensor<int32, [1]>([1])];
            tensor<int32, []> concat_77_axis_0 = const()[name = tensor<string, []>("concat_77_axis_0"), val = tensor<int32, []>(0)];
            tensor<bool, []> concat_77_interleave_0 = const()[name = tensor<string, []>("concat_77_interleave_0"), val = tensor<bool, []>(false)];
            tensor<fp16, [2, 1, 256]> concat_77_cast_fp16 = concat(axis = concat_77_axis_0, interleave = concat_77_interleave_0, values = (slice_by_index_70_cast_fp16, fill_0_to_fp16))[name = tensor<string, []>("concat_77_cast_fp16")];
            tensor<string, []> concat_77_cast_fp16_to_fp32_dtype_0 = const()[name = tensor<string, []>("concat_77_cast_fp16_to_fp32_dtype_0"), val = tensor<string, []>("fp32")];
            tensor<int32, [1]> while_loop_4_loop_vars0_0 = const()[name = tensor<string, []>("while_loop_4_loop_vars0_0"), val = tensor<int32, [1]>([0])];
            tensor<fp32, [2, 1, 256]> concat_77_cast_fp16_to_fp32 = cast(dtype = concat_77_cast_fp16_to_fp32_dtype_0, x = concat_77_cast_fp16)[name = tensor<string, []>("cast_36")];
            tensor<int32, [1]> while_loop_4_0, tensor<fp32, [2, 1, 256]> while_loop_4_1 = while_loop(loop_vars = (while_loop_4_loop_vars0_0, concat_77_cast_fp16_to_fp32))[name = tensor<string, []>("while_loop_4")]
                (tensor<int32, [1]> while_loop_4_loop_vars0_0_x0_1_1_1_0, tensor<fp32, [2, 1, 256]> concat_77_x0_1_1_1_0) {
                    tensor<bool, [1]> less_9 = less(x = while_loop_4_loop_vars0_0_x0_1_1_1_0, y = slice_by_index_71)[name = tensor<string, []>("less_9")];
                } -> (less_9)
                (tensor<int32, [1]> while_loop_4_loop_vars0_0_x0_1_1_1_1, tensor<fp32, [2, 1, 256]> concat_77_x0_1_1_1_1) {
                    tensor<int32, []> gather_18_axis_0 = const()[name = tensor<string, []>("gather_18_axis_0"), val = tensor<int32, []>(0)];
                    tensor<int32, []> gather_18_batch_dims_0 = const()[name = tensor<string, []>("gather_18_batch_dims_0"), val = tensor<int32, []>(0)];
                    tensor<fp16, [1, 1, 256]> gather_18_cast_fp16 = gather(axis = gather_18_axis_0, batch_dims = gather_18_batch_dims_0, indices = while_loop_4_loop_vars0_0_x0_1_1_1_1, x = c_1_layer_0_tmp_cast_fp16)[name = tensor<string, []>("gather_18_cast_fp16")];
                    tensor<int32, []> gather_19_axis_0 = const()[name = tensor<string, []>("gather_19_axis_0"), val = tensor<int32, []>(0)];
                    tensor<int32, []> gather_19_batch_dims_0 = const()[name = tensor<string, []>("gather_19_batch_dims_0"), val = tensor<int32, []>(0)];
                    tensor<string, []> concat_77_x0_1_to_fp16_dtype_0 = const()[name = tensor<string, []>("concat_77_x0_1_to_fp16_dtype_0"), val = tensor<string, []>("fp16")];
                    tensor<fp16, [2, 1, 256]> concat_77_x0_1_to_fp16 = cast(dtype = concat_77_x0_1_to_fp16_dtype_0, x = concat_77_x0_1_1_1_1)[name = tensor<string, []>("cast_35")];
                    tensor<fp16, [1, 1, 256]> gather_19_cast_fp16 = gather(axis = gather_19_axis_0, batch_dims = gather_19_batch_dims_0, indices = while_loop_4_loop_vars0_0_x0_1_1_1_1, x = concat_77_x0_1_to_fp16)[name = tensor<string, []>("gather_19_cast_fp16")];
                    tensor<int32, [1]> squeeze_18_axes_0 = const()[name = tensor<string, []>("squeeze_18_axes_0"), val = tensor<int32, [1]>([0])];
                    tensor<fp16, [1, 256]> squeeze_18_cast_fp16 = squeeze(axes = squeeze_18_axes_0, x = gather_18_cast_fp16)[name = tensor<string, []>("squeeze_18_cast_fp16")];
                    tensor<int32, [1]> squeeze_19_axes_0 = const()[name = tensor<string, []>("squeeze_19_axes_0"), val = tensor<int32, [1]>([0])];
                    tensor<fp16, [1, 256]> squeeze_19_cast_fp16 = squeeze(axes = squeeze_19_axes_0, x = gather_19_cast_fp16)[name = tensor<string, []>("squeeze_19_cast_fp16")];
                    tensor<fp16, [256, 256]> linear_55_weight_0_to_fp16 = const()[name = tensor<string, []>("linear_55_weight_0_to_fp16"), val = tensor<fp16, [256, 256]>(BLOBFILE(path = tensor<string, []>("@model_path/weights/weight.bin"), offset = tensor<uint64, []>(3435136)))];
                    tensor<fp16, [256]> linear_55_bias_0_to_fp16 = const()[name = tensor<string, []>("linear_55_bias_0_to_fp16"), val = tensor<fp16, [256]>(BLOBFILE(path = tensor<string, []>("@model_path/weights/weight.bin"), offset = tensor<uint64, []>(3566272)))];
                    tensor<fp16, [1, 256]> linear_55_cast_fp16 = linear(bias = linear_55_bias_0_to_fp16, weight = linear_55_weight_0_to_fp16, x = squeeze_18_cast_fp16)[name = tensor<string, []>("linear_55_cast_fp16")];
                    tensor<fp16, [256, 256]> linear_56_weight_0_to_fp16 = const()[name = tensor<string, []>("linear_56_weight_0_to_fp16"), val = tensor<fp16, [256, 256]>(BLOBFILE(path = tensor<string, []>("@model_path/weights/weight.bin"), offset = tensor<uint64, []>(3566848)))];
                    tensor<fp16, [256]> linear_56_bias_0_to_fp16 = const()[name = tensor<string, []>("linear_56_bias_0_to_fp16"), val = tensor<fp16, [256]>(BLOBFILE(path = tensor<string, []>("@model_path/weights/weight.bin"), offset = tensor<uint64, []>(3697984)))];
                    tensor<fp16, [1, 256]> linear_56_cast_fp16 = linear(bias = linear_56_bias_0_to_fp16, weight = linear_56_weight_0_to_fp16, x = squeeze_19_cast_fp16)[name = tensor<string, []>("linear_56_cast_fp16")];
                    tensor<fp16, [1, 256]> add_45_cast_fp16 = add(x = linear_55_cast_fp16, y = linear_56_cast_fp16)[name = tensor<string, []>("add_45_cast_fp16")];
                    tensor<fp16, [1, 256]> sigmoid_18_cast_fp16 = sigmoid(x = add_45_cast_fp16)[name = tensor<string, []>("sigmoid_18_cast_fp16")];
                    tensor<fp16, [256, 256]> linear_57_weight_0_to_fp16 = const()[name = tensor<string, []>("linear_57_weight_0_to_fp16"), val = tensor<fp16, [256, 256]>(BLOBFILE(path = tensor<string, []>("@model_path/weights/weight.bin"), offset = tensor<uint64, []>(3698560)))];
                    tensor<fp16, [256]> linear_57_bias_0_to_fp16 = const()[name = tensor<string, []>("linear_57_bias_0_to_fp16"), val = tensor<fp16, [256]>(BLOBFILE(path = tensor<string, []>("@model_path/weights/weight.bin"), offset = tensor<uint64, []>(3829696)))];
                    tensor<fp16, [1, 256]> linear_57_cast_fp16 = linear(bias = linear_57_bias_0_to_fp16, weight = linear_57_weight_0_to_fp16, x = squeeze_18_cast_fp16)[name = tensor<string, []>("linear_57_cast_fp16")];
                    tensor<fp16, [256, 256]> linear_58_weight_0_to_fp16 = const()[name = tensor<string, []>("linear_58_weight_0_to_fp16"), val = tensor<fp16, [256, 256]>(BLOBFILE(path = tensor<string, []>("@model_path/weights/weight.bin"), offset = tensor<uint64, []>(3830272)))];
                    tensor<fp16, [256]> linear_58_bias_0_to_fp16 = const()[name = tensor<string, []>("linear_58_bias_0_to_fp16"), val = tensor<fp16, [256]>(BLOBFILE(path = tensor<string, []>("@model_path/weights/weight.bin"), offset = tensor<uint64, []>(3961408)))];
                    tensor<fp16, [1, 256]> linear_58_cast_fp16 = linear(bias = linear_58_bias_0_to_fp16, weight = linear_58_weight_0_to_fp16, x = squeeze_19_cast_fp16)[name = tensor<string, []>("linear_58_cast_fp16")];
                    tensor<fp16, [1, 256]> add_46_cast_fp16 = add(x = linear_57_cast_fp16, y = linear_58_cast_fp16)[name = tensor<string, []>("add_46_cast_fp16")];
                    tensor<fp16, [1, 256]> sigmoid_19_cast_fp16 = sigmoid(x = add_46_cast_fp16)[name = tensor<string, []>("sigmoid_19_cast_fp16")];
                    tensor<fp16, [256, 256]> linear_59_weight_0_to_fp16 = const()[name = tensor<string, []>("linear_59_weight_0_to_fp16"), val = tensor<fp16, [256, 256]>(BLOBFILE(path = tensor<string, []>("@model_path/weights/weight.bin"), offset = tensor<uint64, []>(3961984)))];
                    tensor<fp16, [256]> linear_59_bias_0_to_fp16 = const()[name = tensor<string, []>("linear_59_bias_0_to_fp16"), val = tensor<fp16, [256]>(BLOBFILE(path = tensor<string, []>("@model_path/weights/weight.bin"), offset = tensor<uint64, []>(4093120)))];
                    tensor<fp16, [1, 256]> linear_59_cast_fp16 = linear(bias = linear_59_bias_0_to_fp16, weight = linear_59_weight_0_to_fp16, x = squeeze_18_cast_fp16)[name = tensor<string, []>("linear_59_cast_fp16")];
                    tensor<fp16, [256, 256]> linear_60_weight_0_to_fp16 = const()[name = tensor<string, []>("linear_60_weight_0_to_fp16"), val = tensor<fp16, [256, 256]>(BLOBFILE(path = tensor<string, []>("@model_path/weights/weight.bin"), offset = tensor<uint64, []>(4093696)))];
                    tensor<fp16, [256]> linear_60_bias_0_to_fp16 = const()[name = tensor<string, []>("linear_60_bias_0_to_fp16"), val = tensor<fp16, [256]>(BLOBFILE(path = tensor<string, []>("@model_path/weights/weight.bin"), offset = tensor<uint64, []>(4224832)))];
                    tensor<fp16, [1, 256]> linear_60_cast_fp16 = linear(bias = linear_60_bias_0_to_fp16, weight = linear_60_weight_0_to_fp16, x = squeeze_19_cast_fp16)[name = tensor<string, []>("linear_60_cast_fp16")];
                    tensor<fp16, [1, 256]> mul_27_cast_fp16 = mul(x = sigmoid_18_cast_fp16, y = linear_60_cast_fp16)[name = tensor<string, []>("mul_27_cast_fp16")];
                    tensor<fp16, [1, 256]> add_47_cast_fp16 = add(x = linear_59_cast_fp16, y = mul_27_cast_fp16)[name = tensor<string, []>("add_47_cast_fp16")];
                    tensor<fp16, [1, 256]> tanh_9_cast_fp16 = tanh(x = add_47_cast_fp16)[name = tensor<string, []>("tanh_9_cast_fp16")];
                    tensor<fp16, []> sub_9_x_0_to_fp16 = const()[name = tensor<string, []>("sub_9_x_0_to_fp16"), val = tensor<fp16, []>(0x1p+0)];
                    tensor<fp16, [1, 256]> sub_9_cast_fp16 = sub(x = sub_9_x_0_to_fp16, y = sigmoid_19_cast_fp16)[name = tensor<string, []>("sub_9_cast_fp16")];
                    tensor<fp16, [1, 256]> mul_28_cast_fp16 = mul(x = sub_9_cast_fp16, y = tanh_9_cast_fp16)[name = tensor<string, []>("mul_28_cast_fp16")];
                    tensor<fp16, [1, 256]> mul_29_cast_fp16 = mul(x = sigmoid_19_cast_fp16, y = squeeze_19_cast_fp16)[name = tensor<string, []>("mul_29_cast_fp16")];
                    tensor<fp16, [1, 256]> add_48_cast_fp16 = add(x = mul_28_cast_fp16, y = mul_29_cast_fp16)[name = tensor<string, []>("add_48_cast_fp16")];
                    tensor<int32, []> add_49_y_0 = const()[name = tensor<string, []>("add_49_y_0"), val = tensor<int32, []>(1)];
                    tensor<int32, [1]> add_49 = add(x = while_loop_4_loop_vars0_0_x0_1_1_1_1, y = add_49_y_0)[name = tensor<string, []>("add_49")];
                    tensor<int32, [1]> expand_dims_9_axes_0 = const()[name = tensor<string, []>("expand_dims_9_axes_0"), val = tensor<int32, [1]>([0])];
                    tensor<fp16, [1, 1, 256]> expand_dims_9_cast_fp16 = expand_dims(axes = expand_dims_9_axes_0, x = add_48_cast_fp16)[name = tensor<string, []>("expand_dims_9_cast_fp16")];
                    tensor<int32, []> scatter_9_axis_0 = const()[name = tensor<string, []>("scatter_9_axis_0"), val = tensor<int32, []>(0)];
                    tensor<string, []> scatter_9_mode_0 = const()[name = tensor<string, []>("scatter_9_mode_0"), val = tensor<string, []>("add")];
                    tensor<fp16, [2, 1, 256]> scatter_9_cast_fp16 = scatter(axis = scatter_9_axis_0, data = concat_77_x0_1_to_fp16, indices = add_49, mode = scatter_9_mode_0, updates = expand_dims_9_cast_fp16)[name = tensor<string, []>("scatter_9_cast_fp16")];
                    tensor<string, []> scatter_9_cast_fp16_to_fp32_dtype_0 = const()[name = tensor<string, []>("scatter_9_cast_fp16_to_fp32_dtype_0"), val = tensor<string, []>("fp32")];
                    tensor<fp32, [2, 1, 256]> scatter_9_cast_fp16_to_fp32 = cast(dtype = scatter_9_cast_fp16_to_fp32_dtype_0, x = scatter_9_cast_fp16)[name = tensor<string, []>("cast_34")];
                } -> (add_49, scatter_9_cast_fp16_to_fp32);
            tensor<int32, [3]> c_1_tmp_begin_0 = const()[name = tensor<string, []>("c_1_tmp_begin_0"), val = tensor<int32, [3]>([1, 0, 0])];
            tensor<int32, [3]> c_1_tmp_end_0 = const()[name = tensor<string, []>("c_1_tmp_end_0"), val = tensor<int32, [3]>([0, 0, 0])];
            tensor<bool, [3]> c_1_tmp_begin_mask_0 = const()[name = tensor<string, []>("c_1_tmp_begin_mask_0"), val = tensor<bool, [3]>([false, true, true])];
            tensor<bool, [3]> c_1_tmp_end_mask_0 = const()[name = tensor<string, []>("c_1_tmp_end_mask_0"), val = tensor<bool, [3]>([true, true, true])];
            tensor<string, []> while_loop_4_1_to_fp16_dtype_0 = const()[name = tensor<string, []>("while_loop_4_1_to_fp16_dtype_0"), val = tensor<string, []>("fp16")];
            tensor<fp16, [2, 1, 256]> while_loop_4_1_to_fp16 = cast(dtype = while_loop_4_1_to_fp16_dtype_0, x = while_loop_4_1)[name = tensor<string, []>("cast_33")];
            tensor<fp16, [1, 1, 256]> c_1_tmp_cast_fp16 = slice_by_index(begin = c_1_tmp_begin_0, begin_mask = c_1_tmp_begin_mask_0, end = c_1_tmp_end_0, end_mask = c_1_tmp_end_mask_0, x = while_loop_4_1_to_fp16)[name = tensor<string, []>("c_1_tmp_cast_fp16")];
            tensor<int32, [3]> c_1_perm_0 = const()[name = tensor<string, []>("c_1_perm_0"), val = tensor<int32, [3]>([1, 0, 2])];
            tensor<int32, []> h_df_out_axis_0 = const()[name = tensor<string, []>("h_df_out_axis_0"), val = tensor<int32, []>(0)];
            tensor<bool, []> h_df_out_interleave_0 = const()[name = tensor<string, []>("h_df_out_interleave_0"), val = tensor<bool, []>(false)];
            tensor<fp16, [2, 1, 256]> h_df_out_cast_fp16 = concat(axis = h_df_out_axis_0, interleave = h_df_out_interleave_0, values = (c_1_layer_0_tmp_cast_fp16, c_1_tmp_cast_fp16))[name = tensor<string, []>("h_df_out_cast_fp16")];
            tensor<int32, [3]> var_930 = const()[name = tensor<string, []>("op_930"), val = tensor<int32, [3]>([1, 0, 2])];
            tensor<bool, []> matmul_6_transpose_x_0 = const()[name = tensor<string, []>("matmul_6_transpose_x_0"), val = tensor<bool, []>(false)];
            tensor<bool, []> matmul_6_transpose_y_0 = const()[name = tensor<string, []>("matmul_6_transpose_y_0"), val = tensor<bool, []>(false)];
            tensor<fp16, [16, 32, 16]> original_df_dec_df_skip_weight_to_fp16 = const()[name = tensor<string, []>("original_df_dec_df_skip_weight_to_fp16"), val = tensor<fp16, [16, 32, 16]>(BLOBFILE(path = tensor<string, []>("@model_path/weights/weight.bin"), offset = tensor<uint64, []>(4225408)))];
            tensor<fp16, [16, 1, 16]> matmul_6_cast_fp16 = matmul(transpose_x = matmul_6_transpose_x_0, transpose_y = matmul_6_transpose_y_0, x = reshape_9_cast_fp16, y = original_df_dec_df_skip_weight_to_fp16)[name = tensor<string, []>("matmul_6_cast_fp16")];
            tensor<int32, [4]> concat_87 = const()[name = tensor<string, []>("concat_87"), val = tensor<int32, [4]>([16, 1, 1, 16])];
            tensor<fp16, [16, 1, 1, 16]> reshape_20_cast_fp16 = reshape(shape = concat_87, x = matmul_6_cast_fp16)[name = tensor<string, []>("reshape_20_cast_fp16")];
            tensor<int32, [4]> x_21_perm_0 = const()[name = tensor<string, []>("x_21_perm_0"), val = tensor<int32, [4]>([1, 2, 0, 3])];
            tensor<int32, [3]> concat_88 = const()[name = tensor<string, []>("concat_88"), val = tensor<int32, [3]>([1, 1, 256])];
            tensor<fp16, [1, 1, 16, 16]> x_21_cast_fp16 = transpose(perm = x_21_perm_0, x = reshape_20_cast_fp16)[name = tensor<string, []>("transpose_23")];
            tensor<fp16, [1, 1, 256]> var_938_cast_fp16 = reshape(shape = concat_88, x = x_21_cast_fp16)[name = tensor<string, []>("op_938_cast_fp16")];
            tensor<fp16, [1, 1, 256]> c_1_cast_fp16 = transpose(perm = c_1_perm_0, x = c_1_tmp_cast_fp16)[name = tensor<string, []>("transpose_25")];
            tensor<fp16, [1, 1, 256]> x_23_cast_fp16 = add(x = c_1_cast_fp16, y = var_938_cast_fp16)[name = tensor<string, []>("x_23_cast_fp16")];
            tensor<int32, [8]> input_123_pad_0 = const()[name = tensor<string, []>("input_123_pad_0"), val = tensor<int32, [8]>([0, 0, 0, 0, 4, 0, 0, 0])];
            tensor<string, []> input_123_mode_0 = const()[name = tensor<string, []>("input_123_mode_0"), val = tensor<string, []>("constant")];
            tensor<fp16, []> const_19_to_fp16 = const()[name = tensor<string, []>("const_19_to_fp16"), val = tensor<fp16, []>(0x0p+0)];
            tensor<fp16, [1, 64, 14, 96]> input_123_cast_fp16 = pad(constant_val = const_19_to_fp16, mode = input_123_mode_0, pad = input_123_pad_0, x = input_41_cast_fp16)[name = tensor<string, []>("input_123_cast_fp16")];
            tensor<string, []> input_125_pad_type_0 = const()[name = tensor<string, []>("input_125_pad_type_0"), val = tensor<string, []>("valid")];
            tensor<int32, []> input_125_groups_0 = const()[name = tensor<string, []>("input_125_groups_0"), val = tensor<int32, []>(2)];
            tensor<int32, [2]> input_125_strides_0 = const()[name = tensor<string, []>("input_125_strides_0"), val = tensor<int32, [2]>([1, 1])];
            tensor<int32, [4]> input_125_pad_0 = const()[name = tensor<string, []>("input_125_pad_0"), val = tensor<int32, [4]>([0, 0, 0, 0])];
            tensor<int32, [2]> input_125_dilations_0 = const()[name = tensor<string, []>("input_125_dilations_0"), val = tensor<int32, [2]>([1, 1])];
            tensor<fp16, [10, 32, 5, 1]> original_df_dec_df_convp_1_weight_to_fp16 = const()[name = tensor<string, []>("original_df_dec_df_convp_1_weight_to_fp16"), val = tensor<fp16, [10, 32, 5, 1]>(BLOBFILE(path = tensor<string, []>("@model_path/weights/weight.bin"), offset = tensor<uint64, []>(4241856)))];
            tensor<fp16, [1, 10, 10, 96]> input_125_cast_fp16 = conv(dilations = input_125_dilations_0, groups = input_125_groups_0, pad = input_125_pad_0, pad_type = input_125_pad_type_0, strides = input_125_strides_0, weight = original_df_dec_df_convp_1_weight_to_fp16, x = input_123_cast_fp16)[name = tensor<string, []>("input_125_cast_fp16")];
            tensor<string, []> input_127_pad_type_0 = const()[name = tensor<string, []>("input_127_pad_type_0"), val = tensor<string, []>("valid")];
            tensor<int32, [2]> input_127_strides_0 = const()[name = tensor<string, []>("input_127_strides_0"), val = tensor<int32, [2]>([1, 1])];
            tensor<int32, [4]> input_127_pad_0 = const()[name = tensor<string, []>("input_127_pad_0"), val = tensor<int32, [4]>([0, 0, 0, 0])];
            tensor<int32, [2]> input_127_dilations_0 = const()[name = tensor<string, []>("input_127_dilations_0"), val = tensor<int32, [2]>([1, 1])];
            tensor<int32, []> input_127_groups_0 = const()[name = tensor<string, []>("input_127_groups_0"), val = tensor<int32, []>(1)];
            tensor<fp16, [10, 10, 1, 1]> const_55_to_fp16 = const()[name = tensor<string, []>("const_55_to_fp16"), val = tensor<fp16, [10, 10, 1, 1]>(BLOBFILE(path = tensor<string, []>("@model_path/weights/weight.bin"), offset = tensor<uint64, []>(4245120)))];
            tensor<fp16, [10]> const_56_to_fp16 = const()[name = tensor<string, []>("const_56_to_fp16"), val = tensor<fp16, [10]>(BLOBFILE(path = tensor<string, []>("@model_path/weights/weight.bin"), offset = tensor<uint64, []>(4245440)))];
            tensor<fp16, [1, 10, 10, 96]> input_129_cast_fp16 = conv(bias = const_56_to_fp16, dilations = input_127_dilations_0, groups = input_127_groups_0, pad = input_127_pad_0, pad_type = input_127_pad_type_0, strides = input_127_strides_0, weight = const_55_to_fp16, x = input_125_cast_fp16)[name = tensor<string, []>("input_129_cast_fp16")];
            tensor<fp16, [1, 10, 10, 96]> c0_out_cast_fp16 = relu(x = input_129_cast_fp16)[name = tensor<string, []>("c0_out_cast_fp16")];
            tensor<int32, [4]> var_956_begin_0 = const()[name = tensor<string, []>("op_956_begin_0"), val = tensor<int32, [4]>([0, 0, -1, 0])];
            tensor<int32, [4]> var_956_end_0 = const()[name = tensor<string, []>("op_956_end_0"), val = tensor<int32, [4]>([1, 10, 10, 96])];
            tensor<bool, [4]> var_956_end_mask_0 = const()[name = tensor<string, []>("op_956_end_mask_0"), val = tensor<bool, [4]>([true, true, true, true])];
            tensor<fp16, [1, 10, 1, 96]> var_956_cast_fp16 = slice_by_index(begin = var_956_begin_0, end = var_956_end_0, end_mask = var_956_end_mask_0, x = c0_out_cast_fp16)[name = tensor<string, []>("op_956_cast_fp16")];
            tensor<int32, [4]> var_958 = const()[name = tensor<string, []>("op_958"), val = tensor<int32, [4]>([0, 2, 3, 1])];
            tensor<int32, [4]> var_962 = const()[name = tensor<string, []>("op_962"), val = tensor<int32, [4]>([1, 1, 16, 16])];
            tensor<fp16, [1, 1, 16, 16]> var_963_cast_fp16 = reshape(shape = var_962, x = x_23_cast_fp16)[name = tensor<string, []>("op_963_cast_fp16")];
            tensor<int32, [4]> transpose_17_perm_0 = const()[name = tensor<string, []>("transpose_17_perm_0"), val = tensor<int32, [4]>([2, 0, 1, 3])];
            tensor<int32, [3]> concat_93 = const()[name = tensor<string, []>("concat_93"), val = tensor<int32, [3]>([16, 1, 16])];
            tensor<fp16, [16, 1, 1, 16]> transpose_17_cast_fp16 = transpose(perm = transpose_17_perm_0, x = var_963_cast_fp16)[name = tensor<string, []>("transpose_21")];
            tensor<fp16, [16, 1, 16]> reshape_21_cast_fp16 = reshape(shape = concat_93, x = transpose_17_cast_fp16)[name = tensor<string, []>("reshape_21_cast_fp16")];
            tensor<bool, []> matmul_7_transpose_x_0 = const()[name = tensor<string, []>("matmul_7_transpose_x_0"), val = tensor<bool, []>(false)];
            tensor<bool, []> matmul_7_transpose_y_0 = const()[name = tensor<string, []>("matmul_7_transpose_y_0"), val = tensor<bool, []>(false)];
            tensor<fp16, [16, 16, 60]> original_df_dec_df_out_0_weight_to_fp16 = const()[name = tensor<string, []>("original_df_dec_df_out_0_weight_to_fp16"), val = tensor<fp16, [16, 16, 60]>(BLOBFILE(path = tensor<string, []>("@model_path/weights/weight.bin"), offset = tensor<uint64, []>(4245568)))];
            tensor<fp16, [16, 1, 60]> matmul_7_cast_fp16 = matmul(transpose_x = matmul_7_transpose_x_0, transpose_y = matmul_7_transpose_y_0, x = reshape_21_cast_fp16, y = original_df_dec_df_out_0_weight_to_fp16)[name = tensor<string, []>("matmul_7_cast_fp16")];
            tensor<int32, [4]> concat_98 = const()[name = tensor<string, []>("concat_98"), val = tensor<int32, [4]>([16, 1, 1, 60])];
            tensor<fp16, [16, 1, 1, 60]> reshape_23_cast_fp16 = reshape(shape = concat_98, x = matmul_7_cast_fp16)[name = tensor<string, []>("reshape_23_cast_fp16")];
            tensor<int32, [4]> x_perm_0 = const()[name = tensor<string, []>("x_perm_0"), val = tensor<int32, [4]>([1, 2, 0, 3])];
            tensor<int32, [3]> concat_99 = const()[name = tensor<string, []>("concat_99"), val = tensor<int32, [3]>([1, 1, 960])];
            tensor<fp16, [1, 1, 16, 60]> x_cast_fp16 = transpose(perm = x_perm_0, x = reshape_23_cast_fp16)[name = tensor<string, []>("transpose_20")];
            tensor<fp16, [1, 1, 960]> input_cast_fp16 = reshape(shape = concat_99, x = x_cast_fp16)[name = tensor<string, []>("input_cast_fp16")];
            tensor<fp16, [1, 1, 960]> c_cast_fp16 = tanh(x = input_cast_fp16)[name = tensor<string, []>("c_cast_fp16")];
            tensor<int32, [4]> var_970 = const()[name = tensor<string, []>("op_970"), val = tensor<int32, [4]>([1, 1, 96, 10])];
            tensor<fp16, [1, 1, 96, 10]> var_971_cast_fp16 = reshape(shape = var_970, x = c_cast_fp16)[name = tensor<string, []>("op_971_cast_fp16")];
            tensor<fp16, [1, 1, 96, 10]> c0_last_cast_fp16 = transpose(perm = var_958, x = var_956_cast_fp16)[name = tensor<string, []>("transpose_22")];
            tensor<fp16, [1, 1, 96, 10]> coefs_1_cast_fp16 = add(x = var_971_cast_fp16, y = c0_last_cast_fp16)[name = tensor<string, []>("coefs_1_cast_fp16")];
            tensor<int32, [5]> var_985 = const()[name = tensor<string, []>("op_985"), val = tensor<int32, [5]>([1, 1, 96, -1, 2])];
            tensor<fp16, [1, 1, 96, 5, 2]> coefs_cast_fp16 = reshape(shape = var_985, x = coefs_1_cast_fp16)[name = tensor<string, []>("coefs_cast_fp16")];
            tensor<int32, [5]> var_987 = const()[name = tensor<string, []>("op_987"), val = tensor<int32, [5]>([0, 3, 1, 2, 4])];
            tensor<int32, [5]> var_1003_begin_0 = const()[name = tensor<string, []>("op_1003_begin_0"), val = tensor<int32, [5]>([0, 0, -1, 0, 0])];
            tensor<int32, [5]> var_1003_end_0 = const()[name = tensor<string, []>("op_1003_end_0"), val = tensor<int32, [5]>([1, 1, 10, 481, 2])];
            tensor<bool, [5]> var_1003_end_mask_0 = const()[name = tensor<string, []>("op_1003_end_mask_0"), val = tensor<bool, [5]>([true, true, true, true, true])];
            tensor<fp16, [1, 1, 1, 481, 2]> var_1003_cast_fp16 = slice_by_index(begin = var_1003_begin_0, end = var_1003_end_0, end_mask = var_1003_end_mask_0, x = spec_buf)[name = tensor<string, []>("op_1003_cast_fp16")];
            tensor<bool, []> mask_3_transpose_x_0 = const()[name = tensor<string, []>("mask_3_transpose_x_0"), val = tensor<bool, []>(false)];
            tensor<bool, []> mask_3_transpose_y_0 = const()[name = tensor<string, []>("mask_3_transpose_y_0"), val = tensor<bool, []>(false)];
            tensor<fp16, [32, 481]> original_mask_erb_inv_fb_to_fp16 = const()[name = tensor<string, []>("original_mask_erb_inv_fb_to_fp16"), val = tensor<fp16, [32, 481]>(BLOBFILE(path = tensor<string, []>("@model_path/weights/weight.bin"), offset = tensor<uint64, []>(4276352)))];
            tensor<fp16, [1, 1, 1, 481]> mask_3_cast_fp16 = matmul(transpose_x = mask_3_transpose_x_0, transpose_y = mask_3_transpose_y_0, x = mask, y = original_mask_erb_inv_fb_to_fp16)[name = tensor<string, []>("mask_3_cast_fp16")];
            tensor<int32, [1]> mask_5_axes_0 = const()[name = tensor<string, []>("mask_5_axes_0"), val = tensor<int32, [1]>([4])];
            tensor<fp16, [1, 1, 1, 481, 1]> mask_5_cast_fp16 = expand_dims(axes = mask_5_axes_0, x = mask_3_cast_fp16)[name = tensor<string, []>("mask_5_cast_fp16")];
            tensor<fp16, [1, 1, 1, 481, 2]> spec_m_cast_fp16 = mul(x = var_1003_cast_fp16, y = mask_5_cast_fp16)[name = tensor<string, []>("spec_m_cast_fp16")];
            tensor<int32, [5]> var_1026_begin_0 = const()[name = tensor<string, []>("op_1026_begin_0"), val = tensor<int32, [5]>([0, 0, 0, 0, 0])];
            tensor<int32, [5]> var_1026_end_0 = const()[name = tensor<string, []>("op_1026_end_0"), val = tensor<int32, [5]>([1, 1, 10, 481, 2])];
            tensor<bool, [5]> var_1026_end_mask_0 = const()[name = tensor<string, []>("op_1026_end_mask_0"), val = tensor<bool, [5]>([true, false, true, true, true])];
            tensor<bool, [5]> var_1026_squeeze_mask_0 = const()[name = tensor<string, []>("op_1026_squeeze_mask_0"), val = tensor<bool, [5]>([false, true, false, false, false])];
            tensor<fp16, [1, 10, 481, 2]> var_1026_cast_fp16 = slice_by_index(begin = var_1026_begin_0, end = var_1026_end_0, end_mask = var_1026_end_mask_0, squeeze_mask = var_1026_squeeze_mask_0, x = spec_buf)[name = tensor<string, []>("op_1026_cast_fp16")];
            tensor<int32, [4]> var_1031_begin_0 = const()[name = tensor<string, []>("op_1031_begin_0"), val = tensor<int32, [4]>([0, 5, 0, 0])];
            tensor<int32, [4]> var_1031_end_0 = const()[name = tensor<string, []>("op_1031_end_0"), val = tensor<int32, [4]>([1, 10, 481, 2])];
            tensor<bool, [4]> var_1031_end_mask_0 = const()[name = tensor<string, []>("op_1031_end_mask_0"), val = tensor<bool, [4]>([true, true, true, true])];
            tensor<fp16, [1, 5, 481, 2]> var_1031_cast_fp16 = slice_by_index(begin = var_1031_begin_0, end = var_1031_end_0, end_mask = var_1031_end_mask_0, x = var_1026_cast_fp16)[name = tensor<string, []>("op_1031_cast_fp16")];
            tensor<int32, [4]> var_1036_begin_0 = const()[name = tensor<string, []>("op_1036_begin_0"), val = tensor<int32, [4]>([0, 0, 0, 0])];
            tensor<int32, [4]> var_1036_end_0 = const()[name = tensor<string, []>("op_1036_end_0"), val = tensor<int32, [4]>([1, 5, 96, 2])];
            tensor<bool, [4]> var_1036_end_mask_0 = const()[name = tensor<string, []>("op_1036_end_mask_0"), val = tensor<bool, [4]>([true, true, false, true])];
            tensor<fp16, [1, 5, 96, 2]> var_1036_cast_fp16 = slice_by_index(begin = var_1036_begin_0, end = var_1036_end_0, end_mask = var_1036_end_mask_0, x = var_1031_cast_fp16)[name = tensor<string, []>("op_1036_cast_fp16")];
            tensor<int32, [1]> coefs_s_axes_0 = const()[name = tensor<string, []>("coefs_s_axes_0"), val = tensor<int32, [1]>([2])];
            tensor<fp16, [1, 5, 1, 96, 2]> df_coefs_cast_fp16 = transpose(perm = var_987, x = coefs_cast_fp16)[name = tensor<string, []>("transpose_19")];
            tensor<fp16, [1, 5, 96, 2]> coefs_s_cast_fp16 = squeeze(axes = coefs_s_axes_0, x = df_coefs_cast_fp16)[name = tensor<string, []>("coefs_s_cast_fp16")];
            tensor<int32, [4]> spec_re_begin_0 = const()[name = tensor<string, []>("spec_re_begin_0"), val = tensor<int32, [4]>([0, 0, 0, 0])];
            tensor<int32, [4]> spec_re_end_0 = const()[name = tensor<string, []>("spec_re_end_0"), val = tensor<int32, [4]>([1, 5, 96, 1])];
            tensor<bool, [4]> spec_re_end_mask_0 = const()[name = tensor<string, []>("spec_re_end_mask_0"), val = tensor<bool, [4]>([true, true, true, false])];
            tensor<bool, [4]> spec_re_squeeze_mask_0 = const()[name = tensor<string, []>("spec_re_squeeze_mask_0"), val = tensor<bool, [4]>([false, false, false, true])];
            tensor<fp16, [1, 5, 96]> spec_re_cast_fp16 = slice_by_index(begin = spec_re_begin_0, end = spec_re_end_0, end_mask = spec_re_end_mask_0, squeeze_mask = spec_re_squeeze_mask_0, x = var_1036_cast_fp16)[name = tensor<string, []>("spec_re_cast_fp16")];
            tensor<int32, [4]> spec_im_begin_0 = const()[name = tensor<string, []>("spec_im_begin_0"), val = tensor<int32, [4]>([0, 0, 0, 1])];
            tensor<int32, [4]> spec_im_end_0 = const()[name = tensor<string, []>("spec_im_end_0"), val = tensor<int32, [4]>([1, 5, 96, 2])];
            tensor<bool, [4]> spec_im_end_mask_0 = const()[name = tensor<string, []>("spec_im_end_mask_0"), val = tensor<bool, [4]>([true, true, true, false])];
            tensor<bool, [4]> spec_im_squeeze_mask_0 = const()[name = tensor<string, []>("spec_im_squeeze_mask_0"), val = tensor<bool, [4]>([false, false, false, true])];
            tensor<fp16, [1, 5, 96]> spec_im_cast_fp16 = slice_by_index(begin = spec_im_begin_0, end = spec_im_end_0, end_mask = spec_im_end_mask_0, squeeze_mask = spec_im_squeeze_mask_0, x = var_1036_cast_fp16)[name = tensor<string, []>("spec_im_cast_fp16")];
            tensor<int32, [4]> c_re_begin_0 = const()[name = tensor<string, []>("c_re_begin_0"), val = tensor<int32, [4]>([0, 0, 0, 0])];
            tensor<int32, [4]> c_re_end_0 = const()[name = tensor<string, []>("c_re_end_0"), val = tensor<int32, [4]>([1, 5, 96, 1])];
            tensor<bool, [4]> c_re_end_mask_0 = const()[name = tensor<string, []>("c_re_end_mask_0"), val = tensor<bool, [4]>([true, true, true, false])];
            tensor<bool, [4]> c_re_squeeze_mask_0 = const()[name = tensor<string, []>("c_re_squeeze_mask_0"), val = tensor<bool, [4]>([false, false, false, true])];
            tensor<fp16, [1, 5, 96]> c_re_cast_fp16 = slice_by_index(begin = c_re_begin_0, end = c_re_end_0, end_mask = c_re_end_mask_0, squeeze_mask = c_re_squeeze_mask_0, x = coefs_s_cast_fp16)[name = tensor<string, []>("c_re_cast_fp16")];
            tensor<int32, [4]> c_im_begin_0 = const()[name = tensor<string, []>("c_im_begin_0"), val = tensor<int32, [4]>([0, 0, 0, 1])];
            tensor<int32, [4]> c_im_end_0 = const()[name = tensor<string, []>("c_im_end_0"), val = tensor<int32, [4]>([1, 5, 96, 2])];
            tensor<bool, [4]> c_im_end_mask_0 = const()[name = tensor<string, []>("c_im_end_mask_0"), val = tensor<bool, [4]>([true, true, true, false])];
            tensor<bool, [4]> c_im_squeeze_mask_0 = const()[name = tensor<string, []>("c_im_squeeze_mask_0"), val = tensor<bool, [4]>([false, false, false, true])];
            tensor<fp16, [1, 5, 96]> c_im_cast_fp16 = slice_by_index(begin = c_im_begin_0, end = c_im_end_0, end_mask = c_im_end_mask_0, squeeze_mask = c_im_squeeze_mask_0, x = coefs_s_cast_fp16)[name = tensor<string, []>("c_im_cast_fp16")];
            tensor<fp16, [1, 5, 96]> var_1056_cast_fp16 = mul(x = spec_re_cast_fp16, y = c_re_cast_fp16)[name = tensor<string, []>("op_1056_cast_fp16")];
            tensor<fp16, [1, 5, 96]> var_1057_cast_fp16 = mul(x = spec_im_cast_fp16, y = c_im_cast_fp16)[name = tensor<string, []>("op_1057_cast_fp16")];
            tensor<fp16, [1, 5, 96]> p_re_cast_fp16 = sub(x = var_1056_cast_fp16, y = var_1057_cast_fp16)[name = tensor<string, []>("p_re_cast_fp16")];
            tensor<fp16, [1, 5, 96]> var_1060_cast_fp16 = mul(x = spec_re_cast_fp16, y = c_im_cast_fp16)[name = tensor<string, []>("op_1060_cast_fp16")];
            tensor<fp16, [1, 5, 96]> var_1061_cast_fp16 = mul(x = spec_im_cast_fp16, y = c_re_cast_fp16)[name = tensor<string, []>("op_1061_cast_fp16")];
            tensor<fp16, [1, 5, 96]> p_im_cast_fp16 = add(x = var_1060_cast_fp16, y = var_1061_cast_fp16)[name = tensor<string, []>("p_im_cast_fp16")];
            tensor<int32, [1]> out_re_axes_0 = const()[name = tensor<string, []>("out_re_axes_0"), val = tensor<int32, [1]>([1])];
            tensor<bool, []> out_re_keep_dims_0 = const()[name = tensor<string, []>("out_re_keep_dims_0"), val = tensor<bool, []>(false)];
            tensor<fp16, [1, 96]> out_re_cast_fp16 = reduce_sum(axes = out_re_axes_0, keep_dims = out_re_keep_dims_0, x = p_re_cast_fp16)[name = tensor<string, []>("out_re_cast_fp16")];
            tensor<int32, [1]> out_im_axes_0 = const()[name = tensor<string, []>("out_im_axes_0"), val = tensor<int32, [1]>([1])];
            tensor<bool, []> out_im_keep_dims_0 = const()[name = tensor<string, []>("out_im_keep_dims_0"), val = tensor<bool, []>(false)];
            tensor<fp16, [1, 96]> out_im_cast_fp16 = reduce_sum(axes = out_im_axes_0, keep_dims = out_im_keep_dims_0, x = p_im_cast_fp16)[name = tensor<string, []>("out_im_cast_fp16")];
            tensor<int32, []> var_1076_axis_0 = const()[name = tensor<string, []>("op_1076_axis_0"), val = tensor<int32, []>(-1)];
            tensor<fp16, [1, 96, 2]> var_1076_cast_fp16 = stack(axis = var_1076_axis_0, values = (out_re_cast_fp16, out_im_cast_fp16))[name = tensor<string, []>("op_1076_cast_fp16")];
            tensor<int32, [1]> var_1078_axes_0 = const()[name = tensor<string, []>("op_1078_axes_0"), val = tensor<int32, [1]>([1])];
            tensor<fp16, [1, 1, 96, 2]> var_1078_cast_fp16 = expand_dims(axes = var_1078_axes_0, x = var_1076_cast_fp16)[name = tensor<string, []>("op_1078_cast_fp16")];
            tensor<int32, [1]> spec_e_df_axes_0 = const()[name = tensor<string, []>("spec_e_df_axes_0"), val = tensor<int32, [1]>([1])];
            tensor<fp16, [1, 1, 1, 96, 2]> spec_e_df_cast_fp16 = expand_dims(axes = spec_e_df_axes_0, x = var_1078_cast_fp16)[name = tensor<string, []>("spec_e_df_cast_fp16")];
            tensor<int32, [5]> var_1085_begin_0 = const()[name = tensor<string, []>("op_1085_begin_0"), val = tensor<int32, [5]>([0, 0, 0, 96, 0])];
            tensor<int32, [5]> var_1085_end_0 = const()[name = tensor<string, []>("op_1085_end_0"), val = tensor<int32, [5]>([1, 1, 1, 481, 2])];
            tensor<bool, [5]> var_1085_end_mask_0 = const()[name = tensor<string, []>("op_1085_end_mask_0"), val = tensor<bool, [5]>([true, true, true, true, true])];
            tensor<fp16, [1, 1, 1, 385, 2]> var_1085_cast_fp16 = slice_by_index(begin = var_1085_begin_0, end = var_1085_end_0, end_mask = var_1085_end_mask_0, x = spec_m_cast_fp16)[name = tensor<string, []>("op_1085_cast_fp16")];
            tensor<int32, []> var_1092 = const()[name = tensor<string, []>("op_1092"), val = tensor<int32, []>(-2)];
            tensor<bool, []> var_1093_interleave_0 = const()[name = tensor<string, []>("op_1093_interleave_0"), val = tensor<bool, []>(false)];
            tensor<fp16, [1, 1, 1, 481, 2]> enhanced_spec = concat(axis = var_1092, interleave = var_1093_interleave_0, values = (spec_e_df_cast_fp16, var_1085_cast_fp16))[name = tensor<string, []>("op_1093_cast_fp16")];
            tensor<fp16, [1, 2, 256]> h_df_out = transpose(perm = var_930, x = h_df_out_cast_fp16)[name = tensor<string, []>("transpose_24")];
            tensor<fp16, [1, 2, 256]> h_erb_out = transpose(perm = var_802, x = h_emb_out_cast_fp16)[name = tensor<string, []>("transpose_31")];
        } -> (enhanced_spec, mask, lsnr, h_enc_out, h_erb_out, h_df_out);
}